codes/DDPG/saved_model/20210726-171001/checkpoint.pt (torch_old, 5373 bytes, 5 tensors)

linear1.weight f4 [30, 3]
00000000: af11 373e 2fbb babe 24bd 2abe 6528 153f
00000010: 8fdf 983e a43e 7dbe 0640 e8be b13a 8fbe
00000020: 67b2 03bf 11c4 d83e fd10 58be cd5a acbd
00000030: 2ce4 9c3e 3771 1a3f 9411 a7be 1863 593e
00000040: 470f 3a3e 1b81 a03e b459 60bd 92c5 84be
00000050: 8138 c23e 8288 0e3f bded a33e 3f29 13bf
00000060: fcd5 573e f415 d4be f3e5 09bf 5b0f 883e
00000070: 0e57 a5be 34d0 d7bd d370 6ebe 0186 223f
00000080: c88e 2abe 1a3c c83d 9154 753e b574 ef3e
00000090: 4ed2 593e da7e 31be 5257 80be bd18 79be
000000a0: 1a51 81bd 78b9 47be 003f ac3e e9d2 3abe
000000b0: aad9 c43e ac43 f3be 4c17 a33b d604 abbe
000000c0: 45d0 91be ff5f 53be 3b7b 82bd f05c 08bf
000000d0: 4a88 a4be 558e 7ebe 8fed 493e e70a c2bd
000000e0: 02e4 18bf 7451 1c3c fd54 a7be f481 6a3d
000000f0: 265b a13c fd86 533d 5127 4e3e 5406 f53e
00000100: 8d49 8cbc 6b4a 0ebf 52d8 16bf ffbd fabd
00000110: 680f a63e 7988 16bf 2ad5 c6bd 735f 013f
00000120: 18a7 a53e a42b 603e b9c3 353e 371e 53be
00000130: acad b83e f8ce c33e a411 74bd 5b93 c9be
00000140: 68f3 a63e b5bd e8be 7ea9 be3e 4beb eebe
00000150: 10cc 0d3f 847f 0f3f 8262 68be 7510 b83e
00000160: 0854 8bbe 174b 1b3f
0.1787784 -0.36470935 -0.16673714 0.5826476 0.29858062 -0.24730927 -0.45361346 -0.27974465
-0.51444095 0.42337087 -0.2110023 -0.084157564 0.3064283 0.60329 -0.326306 0.21229208
0.1816989 0.313485 -0.054773048 -0.25931984 0.37933734 0.55677044 0.32017317 -0.5748481
0.21077722 -0.41423 -0.538665 0.26574215 -0.3229298 -0.105377585 -0.23285227 0.63485724
-0.16656029 0.097770885 0.23958041 0.46768728 0.21271631 -0.17333546 -0.2506662 -0.24325843
-0.06314297 -0.19504344 0.33641815 -0.18244518 0.38447315 -0.47512567 0.0049771424 -0.33402127
-0.2847921 -0.20642088 -0.063711606 -0.5326681 -0.3213523 -0.24858983 0.19719528 -0.09474736
-0.5972291 0.009540904 -0.32682028 0.05725284 0.019696783 0.051642407 0.20132186 0.4785639
-0.017124915 -0.555823 -0.5892383 -0.1224327 0.3243363 -0.5880199 -0.097086266 0.5053627
0.32354045 0.21891648 0.17750444 -0.20616995 0.3607 0.38243842 -0.059587136 -0.39370236
0.3260758 -0.45457235 0.37238687 -0.4666389 0.553895 0.5605395 -0.22693828 0.35950056
-0.27212548 0.60661453

linear1.bias f4 [30]
00000000: aa45 f0bc ad6c 2c3d ba9d a6be 9322 f5be
00000010: 764f dfbe 4717 56be 075e 52be c1cf 8c3d
00000020: f886 42be d46d 3bbd 39a4 a8bd b016 e73e
00000030: d34f bcbe 2b0f e23e abb9 0d3f 80b3 273e
00000040: d70b 393e 8fa9 31bd 8906 d63e f660 0cbf
00000050: 4c9e bbbe 2ec8 813c 6a74 173e 0eab 083f
00000060: 0c47 963d 7087 9f3e 8723 b23e 8049 cdbe
00000070: 916a 07be 1a19 8d3e
-0.029330093 0.04209583 -0.3254221 -0.4787794 -0.4361531 -0.20907317 -0.20543681 0.068755634
-0.18996799 -0.045759037 -0.08234448 0.45134497 -0.3677965 0.44152197 0.5536143 0.16377068
0.18070923 -0.043374594 0.4180186 -0.5483545 -0.36644208 0.015842523 0.14790502 0.5338601
0.0733777 0.31158018 0.3479273 -0.4009514 -0.13224246 0.27558213

linear2.weight f4 [30, 30]
00000000: 5add 373e 48f0 7abd f812 803d 0808 ee3d
00000010: 0fe6 c6bd 988d 6c3d 7f10 b3bd 2dbe 31be
00000020: 0492 bd3d 9188 adbd f42d 50bd 3b65 30be
00000030: 96b5 b5bd 7e62 f1bd e390 91bd a02d b9bc
00000040: 575c a3bd 3567 2bbe 1709 36be ad68 f8bd
00000050: 88e0 f43c 716d adbd 3c45 af3d 80be b93c
00000060: 344b 65bd 28a2 cbbd 647e 30bd acf1 173e
00000070: fea1 6dbd 1455 0a3e cd45 5e3e 3f3c 7dbc
00000080: ae29 923d 14b5 4bbd 109e 24bd f200 52be
00000090: 260b 9a3d e12a 293e bb29 e23d 824b 5b3e
000000a0: 82aa b33d 6961 233c 5c02 2d3e cfb3 433e
000000b0: b57c 033d 9030 033e 45f0 003e ab96 4e3e
000000c0: 1a25 4fbd 77f0 a13d 07b0 81bd ec9b 903b
000000d0: d70d cbbd 9239 123e efba c0bd be2d 0abe
000000e0: 492c f6bd 4b24 0e3e 6f8b 5d3e 41f3 003e
000000f0: 3930 6a3e cbed c8bd 4f2c 70bd b4e1 f6bc
00000100: 4221 2f3e 0961 dd3d fc12 bc3d c473 88bc
00000110: aed2 163e e14e d03d 3bd9 043e c53e 333d
00000120: b3f0 d3bc ae4c 053e bccb fabc 7032 abbd
00000130: 32c8 72bc b656 c2ba 2b0b f53c 53a8 da3d
00000140: d14b bb3d 081e 1d3c 62c3 753d 26fa 54be
00000150: 9540 76bc caa5 493d d52b 4ebe 7a1d 053d
00000160: 13b6 183e 3db1 9cbd 58c0 0bbe 520c fc3d
00000170: 3e25 393b fcaa 8cbd f69b f23d 702f 003d
00000180: 66cb 503e 5053 db3b e909 dc3d 991e e2bc
00000190: 5145 f63d a646 eb3d f0ec 753d 9799 a3bd
000001a0: 585f c2bc 4af1 9ebd 9cde c93d 905e 33be
000001b0: 6cc3 98bd c193 08be ff34 613e 0717 f1bd
000001c0: 4131 ef3d 1f09 e03d 4e85 4d3d 7c06 553d
000001d0: 9331 5b3e 383d 833d b72c bb3d a220 df3d
000001e0: 4be5 51be af25 733d 5d9c a93d 5fdf db3d
000001f0: 35a4 f93d 03c3 e13c 8b12 e53d 5403 223d
00000200: 7ee1 51be 508c 3bbd d313 983e d15b 5b3d
00000210: 7573 5abd 9b31 003e 9115 913b 8304 47be
00000220: 5b5d 44be 6661 cebb 2a9b c2bd 9a8d 4d3d
00000230: e5ec 0c3e 486c 393e 82fe f33c 878b 8bbd
00000240: 44f9 443e 7835 543e 8a67 203e 1e33 c1bd
00000250: c9c3 423e b86e 1e3d bfcf fc3c 2545 4e3e
00000260: 7fd5 edbd b233 61bd 74da 61bc c908 77be
00000270: dff6 a13d 8510 9dbd df38 a63d 2dde 173d
00000280: 134e 323d 0da1 ccbd 605c 413e d2ec a83d
00000290: 0a47 26bd 3533 33bd b58c 4a3e 528b 703e
000002a0: 0d73 3c3e f2ab 1d3c 286d 9b3d 4858 303e
000002b0: 3029 ec3d 1f34 d13c 416f 43bd 71ad 27ba
000002c0: 3042 ce3c 1dc8 ecba de24 613d f801 943c
000002d0: 07b9 2cbe 6768 95bc 45e6 cfbd 7ec3 09be
000002e0: e8fa b2bc bcb7 3d3e cbe0 7e3e b489 0d3e
000002f0: 7c77 c43d d7fc 1bbd 5f80 293e da25 d63c
00000300: f6c2 05be 08d2 fdbd 97b2 f53d e119 0ebe
00000310: a6e5 2bbd 52c8 e23c ecc9 4dbd 279a febc
00000320: d4f0 bc3d 2b16 593c e07c 1f3e 8d66 6a3d
00000330: 14cf 363c f0c9 4e3e bc0c 02be 002c 7fbd
00000340: 7cba eb3d 1546 873d 6b06 673e c3ea 37bd
00000350: 589b 503e b4df b23c ace6 afbd bd4b 933d
00000360: 5c0d 153e 0e89 823d 85dc 3d3e f7fe 8b3e
00000370: 3826 ed3d adfd 23be 256a 1a3e 4c41 c0bd
00000380: 91be 6f3e 15cc 113e 8d01 433e 1823 95bd
00000390: b1b8 9f3d 0f20 b6bd a9e5 843d 7824 073d
000003a0: 89e2 1a3e 295a f93c de12 05be 215a fabd
000003b0: 7b4c 00bd f5de 09bd bbde c5bd a651 c8bd
000003c0: 549b 47bd c6d0 1d3d 330b 133e 29ef a7bd
000003d0: 71fb 183e 5d15 54be 9a6a 8e3d b55a 72bd
000003e0: e94c 003e b7a0 793e 83ab c43d 43f4 12be
000003f0: d75a 913d 6b68 55bc c6eb c13d 1ad7 483e
0.17955533 -0.061264306 0.06253618 0.116226256 -0.09711849 0.05775222 -0.08743381 -0.17357703
0.09256366 -0.084733136 -0.050825074 -0.17226116 -0.088725254 -0.11786364 -0.07107713 -0.022604764
-0.07976597 -0.16738589 -0.17776905 -0.1212934 0.029892221 -0.0846814 0.08558127 0.022673845
-0.055979922 -0.09943038 -0.043089285 0.14838284 -0.058015816 0.13509017 0.21706314 -0.015456258
0.07136856 -0.049733236 -0.040189803 -0.20508173 0.07521658 0.16520263 0.11043116 0.21415523
0.08772756 0.009971955 0.16895431 0.1911156 0.03210135 0.12811494 0.12591656 0.20174663
-0.050572492 0.07907193 -0.06332403 0.0044131186 -0.09914749 0.14279774 -0.09410655 -0.13494012
-0.120201655 0.13881032 0.21635221 0.12592794 0.22869958 -0.098109804 -0.058636006 -0.03013692
0.1710253 0.108095236 0.091833085 -0.016656764 0.14728805 0.10171295 0.12973492 0.043761034
-0.02587161 0.13017532 -0.030614726 -0.083592296 -0.014818238 -0.0014826867 0.029912552 0.106766365
0.0914532 0.00958968 0.060000785 -0.20798549 -0.015030046 0.049230374 -0.20133908 0.032498814
0.14913206 -0.07650993 -0.13647592 0.123070374 0.0028250958 -0.0686855 0.118461534 0.03129524
0.2039009 0.0066932812 0.10744078 -0.02760248 0.1202494 0.114880845 0.060040414 -0.07988279
-0.023727104 -0.07760866 0.098569125 -0.17516541 -0.07459149 -0.13337614 0.21992873 -0.1177197
0.11679316 0.1093924 0.050175957 0.052008137 0.2140563 0.06408161 0.09139388 0.10894896
-0.20497625 0.05936211 0.08281777 0.10735964 0.12189523 0.02755881 0.111851774 0.039553955
-0.20496175 -0.04578811 0.29702625 0.05355436 -0.053332765 0.12518923 0.0044276197 -0.19435315
-0.19176237 -0.006298232 -0.095022514 0.05018387 0.13762243 0.18107712 0.029784445 -0.06813722
0.19235712 0.20723522 0.15664497 -0.09433578 0.19019999 0.03867981 0.03086078 0.20143564
-0.11612987 -0.05498094 -0.013784993 -0.24124445 0.07908415 -0.076691665 0.08116316 0.037077118
0.04353149 -0.099916555 0.18882895 0.08248295 -0.040595092 -0.043750007 0.19780238 0.23490646
0.18403263 0.0096235145 0.07589179 0.17221177 0.115312934 0.025537549 -0.047713522 -0.0006396389
0.025178045 -0.001806501 0.0549668 0.018067345 -0.16867457 -0.01823826 -0.10151342 -0.1345348
-0.021848157 0.1852712 0.24890439 0.13822061 0.09593102 -0.038082924 0.16552876 0.026141096
-0.13062653 -0.12393576 0.11996954 -0.1387706 -0.041967057 0.02768341 -0.050241396 -0.031079365
0.09225622 0.013249914 0.1557498 0.057226706 0.01115777 0.2019422 -0.1270017 -0.06229782
0.115101784 0.06605164 0.22561042 -0.04490162 0.20371759 0.021835186 -0.08588919 0.0719218
0.14555877 0.06373797 0.18541153 0.2734296 0.11579555 -0.16014738 0.15079553 -0.093874544
0.23412539 0.14238007 0.1904356 -0.07282084 0.07798899 -0.088928334 0.06489117 0.032993764
0.15125479 0.0304385 -0.12995479 -0.12224222 -0.031322937 -0.033659894 -0.09661623 -0.09781198
-0.048732117 0.03852918 0.14359741 -0.08199913 0.14939667 -0.20711274 0.069539264 -0.059168536
0.12529339 0.24377714 0.09603026 -0.14350991 0.070974045 -0.013025383 0.09468798 0.19613305

linear2.bias f4 [30]
00000000: 2ce9 98bd 5fc6 113e 007f 013e f253 3b3d
00000010: 4187 b9bd 43b2 663e ca03 fb3d 3330 453e
00000020: 8823 b43d d5d3 8c3d dade 073e f595 c03d
00000030: 4dfe a0bc 80dc 41bc 08ef 233e 5a3c 4dbc
00000040: d3b3 343e e059 70bd 739c cbbd 31cb 0a3d
00000050: 3c2d 6a3d d18e 193e 2fb8 eabd 53e4 b3bd
00000060: 88ff acbd 19d5 a53c 74cb 673e 30d6 8cbd
00000070: f0ab 423d 9f97 9abd
-0.07466349 0.14235829 0.12646103 0.045734353 -0.09059001 0.22528939 0.12256582 0.19256668
0.087958395 0.06876341 0.13268605 0.09403602 -0.01965251 -0.011832356 0.16009152 -0.012526596
0.17646722 -0.05867946 -0.0994195 0.033885185 0.057172045 0.14995886 -0.114609115 -0.08783784
-0.08447176 0.020243214 0.22636205 -0.068767905 0.047527254 -0.07548451

linear3.weight f4 [1, 30]
00000000: 968a 1f3b 7a90 5c3d 200e fb3c 6abf 99bd
00000010: 4dd1 a7bd 2009 803d 7027 b0bd 4fe4 973d
00000020: 8027 883d dffb 6b3d a2ee 1cbb 6219 713d
00000030: 55f2 9fbd 00ec d03a 686d 9bbd d2cf 523d
00000040: 8082 9d3d 7611 8bbd cb49 b4bd 3c8d 923d
00000050: f2a1 613d 2d32 1f3d b4fa f0bc 2a59 a43d
00000060: 08ce 32bd c5c0 c2bd 6761 613d c364 c0bd
00000070: 46d0 903d ad70 733d
0.0024344078 0.05384872 0.030646384 -0.075072125 -0.08194218 0.062517405 -0.08601272 0.07416593
0.06648159 0.05761325 -0.0023945947 0.058862098 -0.07809893 0.0015939474 -0.07589227 0.051467724
0.076909065 -0.0679044 -0.088031374 0.071558446 0.055086084 0.03886621 -0.02941642 0.08024819
-0.043653518 -0.09509424 0.05502453 -0.09394219 0.07070975 0.059433628
