codes/DDPG/saved_model/20210726-171210/checkpoint.pt (torch_old, 5373 bytes, 5 tensors)

linear1.weight f4 [30, 3]
0	0x3d85544d	0.0651022
1	0xbef7fd34	-0.48435366
2	0xbf1b0705	-0.60557586
3	0xbf1450b3	-0.5793564
4	0xbbd8b3c4	-0.0066132266
5	0x3f043742	0.51646817
6	0xbf12b934	-0.5731385
7	0xbcc5f97f	-0.02416682
8	0x3f012fbf	0.5046348
9	0xbe3a1d62	-0.18175271
10	0xbea85e9f	-0.3288469
11	0xbe93825f	-0.28810403
12	0x3ed03f67	0.40673372
13	0xbf168080	-0.58789825
14	0xbed8bda9	-0.423322
15	0x3ccfb651	0.02535549
16	0xbea97b1d	-0.3310174
17	0x3e89d259	0.26918295
18	0x3ea191dc	0.31556594
19	0xbef8d92a	-0.48603183
20	0x3d445a31	0.047937576
21	0xbe340ddb	-0.1758341
22	0xbeb9ab68	-0.36263585
23	0x3eb00940	0.34382057
24	0xbf094210	-0.5361643
25	0x3eb20a8b	0.3477367
26	0x3e954637	0.29155132
27	0xbe8cb44d	-0.2748131
28	0x3ef3e4e2	0.4763556
29	0xbda37499	-0.079812236
30	0xbe52cd95	-0.20586236
31	0x3dbfca14	0.09364715
32	0x3e50fdeb	0.20409362
33	0xbe087a74	-0.13327962
34	0x3da665d5	0.08124892
35	0xbefaa0da	-0.48950845
36	0xbe314e02	-0.17314914
37	0xbf1563d7	-0.5835547
38	0xbd4a6f08	-0.049422294
39	0xbecf45d5	-0.40482965
40	0xbe6627ee	-0.2247617
41	0x3f0bc92b	0.5460383
42	0x3c519d2c	0.01279382
43	0x3eef02db	0.46681866
44	0xbeea2d2f	-0.45737597
45	0xbf11ff3c	-0.5703008
46	0x3e0ab65b	0.13546126
47	0xbeb46cbe	-0.35239214
48	0xbedf7ea7	-0.43651316
49	0xbf2bcaa9	-0.6710611
50	0xbf059127	-0.5217461
51	0x3f194152	0.59865296
52	0x3f017772	0.50572884
53	0x3e8d48fe	0.2759475
54	0x3ed1a44b	0.40945658
55	0x3ecc992e	0.39960617
56	0x3e2512af	0.16120408
57	0xbf1d7c94	-0.61518216
58	0x3f03b91a	0.5145432
59	0xbe30591c	-0.17221493
60	0xbee7e591	-0.45292333
61	0xbe2499ec	-0.16074342
62	0xbebba4e7	-0.36649248
63	0x3ec2dd64	0.38059533
64	0xbf0e8f41	-0.5568734
65	0xbedaa9e0	-0.4270773
66	0x3e951a20	0.29121494
67	0xbe8dac4e	-0.2767052
68	0xbef1327f	-0.47108838
69	0xbc0460b6	-0.008079698
70	0x3de6bdb4	0.11266652
71	0xbe122ec0	-0.14275646
72	0xbf27a327	-0.65483326
73	0xbf0aeceb	-0.5426776
74	0x3e14aa64	0.14518124
75	0xbe829267	-0.2550232
76	0xbf1a2411	-0.6021128
77	0xbf0ae8e1	-0.54261595
78	0x3dd20463	0.10254743
79	0x3e7a1361	0.24421455
80	0xbd2b727d	-0.04185723
81	0x3d876463	0.06610944
82	0x3ee4fd3a	0.44724447
83	0x3eb6490b	0.35602602
84	0x3f11f594	0.5701535
85	0xbdaa9383	-0.08328917
86	0xbea80f34	-0.328241
87	0x3d183a83	0.037165176
88	0x3da0e83a	0.07856794
89	0x3f01cf4f	0.5070695

linear1.bias f4 [30]
0	0xbdf24930	-0.11830366
1	0x3f01bd5c	0.50679564
2	0x3dbc09df	0.0918157
3	0xbd6424e0	-0.05569923
4	0xbdc578d4	-0.09642187
5	0x3d236ef3	0.03990073
6	0xbefe950c	-0.4972309
7	0xbe9f3710	-0.31096697
8	0x3d8efcb1	0.06981791
9	0xbe17e79e	-0.14834449
10	0xbee50283	-0.4472848
11	0xbedebd03	-0.4350358
12	0x3eb1b0ad	0.34705105
13	0xbda536df	-0.080671065
14	0xbef05989	-0.4694331
15	0x3e644f4a	0.22295871
16	0xbc89c654	-0.016818203
17	0x3eca381d	0.39495936
18	0xbf01bac6	-0.5067562
19	0x3eafd983	0.34345636
20	0x3f053c95	0.52045566
21	0x3f1b9e95	0.6078885
22	0x3e1806e3	0.14846377
23	0xbe26ef5e	-0.16302249
24	0xbedda011	-0.43286183
25	0x3f18db64	0.59709764
26	0xbef2675b	-0.4734448
27	0xbe255841	-0.16146947
28	0xbdd70839	-0.10499615
29	0x3d0716b8	0.03298065

linear2.weight f4 [30, 30]
0	0x3e503695	0.20333321
1	0x3e060b1e	0.13090178
2	0x3e3475e9	0.17623104
3	0x3e241c0c	0.16026324
4	0x3ce09299	0.027413653
5	0x3d5049d0	0.050851643
6	0x3d54e5e7	0.051977064
7	0x3dc2f79e	0.095198855
8	0x3c35fa8e	0.0111071
9	0x3c458dad	0.012057704
10	0xbe944d99	-0.28965452
11	0x3cd48f53	0.025947249
12	0x3e193ca7	0.14964543
13	0xbe04f9b2	-0.12985876
14	0x3db09112	0.0862142
15	0x3d9a07f5	0.07521049
16	0x3d454609	0.048162494
17	0xbc8231dc	-0.015892915
18	0xbd23ce22	-0.039991505
19	0xbd5aecf8	-0.053448647
20	0x3daa9498	0.08329123
21	0xbd3ba551	-0.045811955
22	0x3e089335	0.13337405
23	0x3d079125	0.033097405
24	0x3db31287	0.08743768
25	0x3b91ca21	0.0044491445
26	0xbe006cd0	-0.12541509
27	0xbd3e7664	-0.046499625
28	0x3e3a7069	0.18206944
29	0x3e127dc1	0.14305784
30	0x3d5768eb	0.052590292
31	0xbd54d160	-0.051957488
32	0xbcddf18e	-0.027092721
33	0xbdebacb5	-0.115075506
34	0x3dd9313b	0.10605093
35	0xbd186c62	-0.037212737
36	0xbd94c8f3	-0.072648905
37	0xbdf4ae8b	-0.11947354
38	0xbd3fa79f	-0.046790715
39	0xbe1064e7	-0.14100991
40	0xbe987c00	-0.29782104
41	0x3d6e1a20	0.058130383
42	0x3dab9932	0.08378829
43	0xbd7de5a3	-0.061986577
44	0xbe2ccaa2	-0.16874173
45	0xbd8ffe57	-0.07030933
46	0x3e4a4693	0.19753484
47	0x3d4a4482	0.04938174
48	0xbd40456c	-0.046941206
49	0x3dcbcbc2	0.09950973
50	0xbd87c6ba	-0.06629701
51	0xbd957260	-0.07297206
52	0x3dcaa593	0.09894862
53	0x3d02037e	0.03174161
54	0x3d8df6a9	0.06931812
55	0x3e3e9717	0.18612324
56	0x3da68fe4	0.08132914
57	0x3df48086	0.119385764
58	0xbe2bebcd	-0.1678917
59	0x3e1b7bbb	0.15183918
60	0xbdfc25b2	-0.12311877
61	0xbdc52cba	-0.096276715
62	0x3e319765	0.17342909
63	0xbcaa60e1	-0.020798149
64	0x3e3127bd	0.17300315
65	0xbd29d463	-0.041462313
66	0x3e33292d	0.17496176
67	0x3d4be3a6	0.04977765
68	0x3e376c1d	0.17912336
69	0x3d906972	0.07051362
70	0xbdde2741	-0.10847331
71	0xbd8da5ee	-0.06916414
72	0x3d575a51	0.052576367
73	0xbca755c5	-0.02042664
74	0x3d94a013	0.07257094
75	0x3d0ee809	0.034889255
76	0x3cbf3dce	0.0233449
77	0xbe358d8c	-0.17729777
78	0x3e0b1577	0.13582407
79	0x3e5956a4	0.21224457
80	0xbbb29a8c	-0.0054505523
81	0xbd6cb394	-0.057788447
82	0x3e371004	0.17877203
83	0x3d59d1f3	0.05317874
84	0x3dce110d	0.10061846
85	0xbd83195b	-0.064013205
86	0xbde50e05	-0.11184315
87	0x3d9624cc	0.07331237
88	0xbe050e8e	-0.12993833
89	0xbda8d63e	-0.082439885
90	0x3e1e03eb	0.15431182
91	0x3cfc84cc	0.030825041
92	0x3d55a222	0.052156575
93	0x3d93e65b	0.07221671
94	0x3d69f1ce	0.05711537
95	0x3daef04d	0.085419275
96	0x3ce9eac5	0.02855433
97	0xbcf2a39e	-0.029619034
98	0x3d2d227e	0.042269222
99	0x3e1759e9	0.14780392
100	0xbe7b5123	-0.2454267
101	0xbdaa73a1	-0.08322836
102	0x3e5e1a4d	0.2168972
103	0xbb7ab36a	-0.0038253912
104	0xbd263cd9	-0.040585373
105	0x3e26d221	0.16291095
106	0xbb215165	-0.0024615165
107	0xbcbaad12	-0.022787604
108	0x3cb97c38	0.02264224
109	0x3c7d62a2	0.01546541
110	0x3e73430b	0.23756044
111	0x3dcd905b	0.10037299
112	0x3e3cbc87	0.18431292
113	0x3da9525d	0.08267663
114	0x3e315bb7	0.17320143
115	0xbd9825c9	-0.07429082
116	0x3d9957d5	0.07487456
117	0x3b2d9143	0.0026484288
118	0xbe1b5570	-0.1516931
119	0xbe22e951	-0.15909316
120	0x3dbb2796	0.0913841
121	0xbd66a04f	-0.056305226
122	0x3e050c40	0.12992954
123	0x3d5c3ac1	0.05376697
124	0x3e290b53	0.16508226
125	0x3d6b9097	0.05751094
126	0x3d6bae7d	0.057539452
127	0x3e1590a3	0.14605956
128	0xbcc0a3ed	-0.023515666
129	0xbcd5938d	-0.026071334
130	0xbe0b1848	-0.13583481
131	0x3dd0ba7e	0.101918206
132	0x3e01e596	0.12685236
133	0x3e179f53	0.14806871
134	0x3d9ff691	0.07810701
135	0x3e4d9c07	0.20079051
136	0x3dd0ebf8	0.102012575
137	0xbe5954ef	-0.21223806
138	0xbe3f94f4	-0.18709165
139	0xbc634f74	-0.013873924
140	0x3b243ac4	0.002505944
141	0x3e26a9fc	0.16275781
142	0xbd130875	-0.035896737
143	0x3d7ddef0	0.061980188
144	0x3e5e5269	0.21711124
145	0x3d30ee93	0.043196272
146	0xbd05a328	-0.0326263
147	0xbd222bc9	-0.039592538
148	0xbc23824d	-0.009979797
149	0x3cd0e2ab	0.025498709
150	0xbdcdb2e4	-0.10043886
151	0xbd5435b0	-0.051809013
152	0x3b6a51ee	0.00357544
153	0x3dfcd481	0.123452194
154	0xbc2a9253	-0.010410863
155	0x3d9ffabf	0.07811498
156	0xbd9c7df8	-0.07641214
157	0xbd36d680	-0.044638157
158	0xbd5b74c0	-0.05357814
159	0x3e451d64	0.19249493
160	0xbea09721	-0.31365302
161	0x3d5452ba	0.051836707
162	0x3e4dc15a	0.20093289
163	0x3e18405c	0.14868301
164	0x3bec5706	0.0072125224
165	0x3dca6ffa	0.09884639
166	0x3d203603	0.03911401
167	0xbe13f639	-0.14449395
168	0x3cb6337d	0.022241348
169	0x3dca7129	0.09884865
170	0xbd4c07b6	-0.04981204
171	0x3e73bb99	0.23802032
172	0xbdcc946e	-0.09989248
173	0xbe08ba68	-0.13352358
174	0x3e421816	0.189545
175	0x3dfc558f	0.123210065
176	0x3e0f5323	0.13996558
177	0x3dcead74	0.10091677
178	0x3dbfe3a1	0.09369589
179	0x3dfb311e	0.12265228
180	0x3ca9401a	0.020660449
181	0x3d903f1e	0.07043289
182	0x3e1a2a3d	0.15055175
183	0x3dd57fc7	0.10424762
184	0x3df4e57a	0.11957832
185	0x3e06c26d	0.13160105
186	0xbd95749a	-0.072976306
187	0xbde2a0c8	-0.11065823
188	0x3e3b03a6	0.1826311
189	0xbd06fa7d	-0.032953728
190	0xbd968797	-0.073500805
191	0x3e395d52	0.18102005
192	0x3e0947e6	0.13406333
193	0x3bcd0840	0.006257087
194	0x3e031169	0.1279961
195	0xbe014ad9	-0.12626208
196	0x3e6ca21f	0.2310872
197	0xbe57b26d	-0.21064158
198	0xbde0ecdd	-0.10982678
199	0x3d8dea17	0.06929415
200	0x3e2f824b	0.17139547
201	0xbdd0b868	-0.10191423
202	0x3e1e894d	0.15482064
203	0x3d69303e	0.056930773
204	0x3d817bbb	0.06322428
205	0x3da36987	0.07979112
206	0x3db43fb1	0.08801211
207	0xbdc0b890	-0.094102025
208	0x3e44f3a3	0.19233565
209	0xbe3ba5db	-0.18324988
210	0x3bc71004	0.0060749073
211	0xbe0c6553	-0.13710527
212	0x3d2a8148	0.0416272
213	0x3e5ac516	0.21364245
214	0x3e022957	0.12711082
215	0x3e19e109	0.1502725
216	0xbdba8e17	-0.09109133
217	0x3dc8e0d8	0.098085105
218	0xbcc8e3e1	-0.024522724
219	0xbdf8eab0	-0.12154138
220	0xbe325c6f	-0.17418073
221	0x3e37bea8	0.17943823
222	0x3e6f19d0	0.2334969
223	0x3d959bea	0.07305129
224	0xbd7a8795	-0.061164457
225	0xbd435561	-0.047688846
226	0x3c18f850	0.009336546
227	0xbdac5924	-0.0841544
228	0xbdbc3721	-0.091902025
229	0xbd90f628	-0.070782006
230	0x3e6a1b88	0.22862065
231	0xbd8dd605	-0.069255866
232	0x3e2c5f35	0.16833194
233	0xbe152e19	-0.14568366
234	0x3e199468	0.14998019
235	0xbce38411	-0.027772935
236	0x3e311930	0.17294765
237	0xbe447b5b	-0.19187681
238	0xbd3f620e	-0.04672437
239	0x3ddbfd66	0.10741691
240	0xbd8d2007	-0.06890874
241	0x3dd7cb86	0.10536866
242	0x3dafb087	0.08578592
243	0x3de463ae	0.11151825
244	0x3db4aca6	0.088219926
245	0xbdd52e8c	-0.10409269
246	0xbe0cb3a9	-0.1374041
247	0xbc8e47c9	-0.017368214
248	0xbd4ed40c	-0.050495192
249	0xbb888f40	-0.0041674674
250	0x3bd1d1c2	0.006403179
251	0x3e36caef	0.1785085
252	0x3dabbd60	0.0838573
253	0x3e12fe78	0.14354885
254	0x3d4c0317	0.049807634
255	0xbc8d31e5	-0.017235706

linear2.bias f4 [30]
0	0x3de31b8e	0.1108924
1	0x3e46b3a5	0.19404466
2	0xbcda3c45	-0.026640067
3	0x3dcc7f39	0.09985203
4	0xbdbb86e9	-0.091565914
5	0xbdf57d1c	-0.11986753
6	0x3d604312	0.054751463
7	0x3e1f17f7	0.15536486
8	0x3e0a2744	0.13491541
9	0xbe276461	-0.16346885
10	0x3c758423	0.014985117
11	0x3d37d39b	0.044879537
12	0x3dc17ea9	0.09447987
13	0x3e24b8dc	0.16086143
14	0x3b9f3566	0.0048586605
15	0xbda27915	-0.07933251
16	0x3db54c79	0.088524766
17	0xbc2fb830	-0.010725066
18	0x3d30c7c6	0.04315927
19	0x3d964022	0.07336451
20	0x3e1e66b7	0.1546887
21	0x3e55bbfd	0.20872493
22	0xbc7b0586	-0.015321141
23	0xbe135159	-0.143865
24	0x3e7285d2	0.23683861
25	0x3d897232	0.06711234
26	0x3db0e280	0.086369514
27	0xbc7078fd	-0.014677283
28	0x3e27d840	0.16391087
29	0xbc99535c	-0.018716507

linear3.weight f4 [1, 30]
0	0x3cb345fe	0.02188396
1	0x3d11020c	0.035402343
2	0x3caab0b6	0.020836215
3	0x3d54760d	0.051870394
4	0x3d169d5c	0.036771163
5	0x3ce51a47	0.027966632
6	0x3d4489d1	0.047982994
7	0x3d860f15	0.065458454
8	0x3d19a876	0.037514172
9	0xbb2e6384	-0.002660961
10	0x3d6d7fd6	0.057983242
11	0x3d3bd438	0.045856684
12	0xbdc2e68b	-0.09516629
13	0x3cf8014c	0.030274056
14	0x3b7112b9	0.0036784841
15	0x3a7dcfa0	0.00096821226
16	0x3c563716	0.013074657
17	0xba9da1a6	-0.0012026324
18	0x3c7de726	0.015497005
19	0x3da74503	0.0816746
20	0x3cef3756	0.02920119
21	0x3cd1343a	0.025537599
22	0x3c4bff51	0.012451009
23	0xbcb069ed	-0.021534884
24	0x3d748db1	0.05970544
25	0x3d774162	0.06036509
26	0x3d0b8a98	0.03406772
27	0x3d5eb4a5	0.054371495
28	0x3c5b03e6	0.013367629
29	0x3d250fac	0.04029815
