codes/DDPG/saved_model/20210726-010259/checkpoint.pt (torch_old, 5373 bytes, 5 tensors)

linear1.weight f4 [30, 3]
0	0xbd67c0ce	-0.056580357
1	0xbec383d9	-0.3818653
2	0x3ed4adb9	0.4153879
3	0xbef12fa6	-0.47106665
4	0xbe39671e	-0.18105742
5	0xbb987cdb	-0.004653556
6	0xbe27abee	-0.1637418
7	0xbe861c12	-0.2619329
8	0xbdf5beb7	-0.119992666
9	0x3d213266	0.039354704
10	0xbf026974	-0.5094216
11	0x3f081253	0.5315296
12	0xbf1dd493	-0.6165249
13	0xbf2561af	-0.6460218
14	0xbcb00650	-0.021487385
15	0xbe647e61	-0.22313835
16	0xbe777572	-0.24165896
17	0x3eecdfcb	0.4626449
18	0x3e97db86	0.2965967
19	0x3e06597d	0.13120075
20	0x3e2c9dc4	0.16857058
21	0x3e1701dd	0.14746805
22	0x3ec25887	0.37958166
23	0x3eec1b3f	0.46114537
24	0xbf207fb5	-0.62694865
25	0x3dcc549c	0.099770755
26	0x3df9fbbe	0.12206219
27	0xbd8fb21f	-0.07016396
28	0xbef72286	-0.48268527
29	0x3e31b0cd	0.173526
30	0x3e59d372	0.21272066
31	0x3d0db8c1	0.034600023
32	0xbe9c4d95	-0.3052794
33	0xbe920b89	-0.28524426
34	0xbca3dade	-0.020001825
35	0xbf15410d	-0.58302385
36	0x3e637b6c	0.2221505
37	0xbebc138c	-0.36733663
38	0x3e2c05ab	0.16799037
39	0xbc33ed36	-0.010981848
40	0xbef5e721	-0.480279
41	0x3e97b414	0.29629576
42	0x3edf56c2	0.43620878
43	0xbe7dcbbc	-0.2478475
44	0x3e946650	0.28984308
45	0xbf1608d0	-0.58607197
46	0x3e7a6a5f	0.2445464
47	0x3ea44d7a	0.3209036
48	0xbe8bab11	-0.2727895
49	0x3e8350bb	0.2564753
50	0x3eaef7f0	0.34173536
51	0x3dccd614	0.1000177
52	0xbd8893ce	-0.066688165
53	0x3e1ee61a	0.15517464
54	0xbf0d5664	-0.55209947
55	0xbd7ab456	-0.061207138
56	0xbd851ae6	-0.06499271
57	0x3da2bcab	0.07946142
58	0xbe08a2ca	-0.13343349
59	0xbec65604	-0.387375
60	0xbf132c9e	-0.57489955
61	0xbe38bda4	-0.18041092
62	0xbe6b5110	-0.22980142
63	0xbf138ab3	-0.57633513
64	0xbf2f7323	-0.6853506
65	0xbf0e6824	-0.55627656
66	0xbd975437	-0.073891096
67	0x3f0a9a27	0.5414147
68	0x3eed6035	0.46362463
69	0xbf06905a	-0.52564013
70	0x3e12829a	0.14307633
71	0xbe0f76dd	-0.14010186
72	0x3eb52c05	0.35385147
73	0xbb42f53f	-0.002974823
74	0xbe5a9f87	-0.21349917
75	0x3e1db9cf	0.15402912
76	0xbd40f7a7	-0.04711118
77	0x3e5d38b1	0.21603657
78	0xbf03f60f	-0.5154733
79	0xbf277486	-0.65412176
80	0xbeb75b6a	-0.3581193
81	0x3e92680f	0.28595015
82	0xbf003685	-0.5008319
83	0x3d8ff9c4	0.07030061
84	0xbdcf2bcc	-0.101157755
85	0xbf1ea71f	-0.61973757
86	0xbed4e357	-0.41579697
87	0xbf1b14ee	-0.6057881
88	0xbead9680	-0.33903885
89	0xbe4780df	-0.19482754

linear1.bias f4 [30]
0	0x3e1128f6	0.14175782
1	0x3e700d88	0.23442662
2	0xbd737252	-0.059435196
3	0x3f07dcce	0.53071296
4	0x3d0e6277	0.034761872
5	0xbeb8e9ac	-0.36115777
6	0xbebcf2d5	-0.36904016
7	0xbd378b9f	-0.044810887
8	0x3df5b485	0.11997322
9	0x3e3646be	0.17800424
10	0xbebbe9d8	-0.36701846
11	0x3dd26615	0.10273377
12	0xbf07fff5	-0.53124934
13	0xbec8abf8	-0.39193702
14	0x3ef1b812	0.47210747
15	0xbe47178c	-0.19442576
16	0xbf081a2d	-0.5316494
17	0x3d0578d8	0.03258595
18	0x3ea9458e	0.3306088
19	0x3e364311	0.17799021
20	0x3eca481a	0.39508134
21	0x3e046220	0.12928057
22	0x3ea93e49	0.33055332
23	0x3e8bdec0	0.27318382
24	0x3f1a8224	0.6035483
25	0x3e20f3a2	0.15717939
26	0xbc3ddd0a	-0.011588344
27	0xbf106550	-0.5640459
28	0xbe884d94	-0.26621687
29	0x3f1d5b67	0.61467594

linear2.weight f4 [30, 30]
0	0xbdc75e99	-0.0973484
1	0x3e276c29	0.16349854
2	0x3d96fc43	0.07372334
3	0xbe2782b6	-0.16358456
4	0x3e8984ba	0.26859075
5	0xbe3e7420	-0.18598986
6	0x3df96923	0.12178256
7	0x3d6c851f	0.05774414
8	0x3e14ad34	0.14519197
9	0x3e27a35a	0.16370907
10	0x3e2ce155	0.16882832
11	0xbd82e369	-0.06391031
12	0xbe0e69e8	-0.13907588
13	0xbe2836b9	-0.16427125
14	0x3bebef2d	0.007200143
15	0x3e046729	0.12929977
16	0x3de713b6	0.112830564
17	0x3dc5b61e	0.09653877
18	0x3dcb7173	0.09933748
19	0x3d8cfb40	0.0688386
20	0xbd3a8842	-0.0455401
21	0x3cb55214	0.022133864
22	0xb9bda912	-0.00036174856
23	0x3dcf7f12	0.101316586
24	0x3e262ea7	0.16228734
25	0x3d707608	0.058706313
26	0x3e82f24f	0.25575492
27	0x3de8d083	0.113678955
28	0x3ce513bc	0.027963512
29	0xbbe5e3e3	-0.0070156916
30	0xbc422a37	-0.011850885
31	0x3e2f17c3	0.17098908
32	0x3d8118e8	0.063035786
33	0xbd632815	-0.055458147
34	0x3d870785	0.06593231
35	0x3e03e264	0.1287933
36	0x3dde16fa	0.10844226
37	0xbd9013d2	-0.070350304
38	0x3de99999	0.114062496
39	0xbd64458f	-0.0557304
40	0x3dc34281	0.09534169
41	0x3df565ad	0.11982284
42	0xbda5cf4e	-0.08096181
43	0xbe2cf74c	-0.16891211
44	0xbce85382	-0.028360132
45	0x3b9ada28	0.0047257133
46	0xbdafa26e	-0.08575903
47	0x3d89b248	0.067234576
48	0xbdab3e22	-0.0836146
49	0x3dcea89a	0.10090752
50	0x3e223c32	0.15843275
51	0x3dd25d48	0.10271698
52	0x3db28bec	0.08718094
53	0x3df182fe	0.11792563
54	0x3d805779	0.06266684
55	0x3de7f96e	0.11326872
56	0xbd613d32	-0.05499
57	0xbd8743ea	-0.066047505
58	0x3adeedc8	0.001700812
59	0x3dc2a388	0.09503847
60	0x3cde812f	0.027161209
61	0x3e23af65	0.15984876
62	0x3db34c7f	0.08754825
63	0x3cc406c0	0.023929
64	0x3e603903	0.21896748
65	0xbde99e61	-0.114071615
66	0xbac2a975	-0.0014851528
67	0xbe82714e	-0.2547707
68	0x3c9e7549	0.019343035
69	0x3d78ed68	0.060773283
70	0x3cb46040	0.022018552
71	0xbd0937e3	-0.033500563
72	0xbd0b711d	-0.03404342
73	0x3e47006c	0.19433755
74	0x3d8c9a2e	0.06865345
75	0xbe412af0	-0.18864036
76	0x3dbec71a	0.09315319
77	0xbe22a528	-0.15883315
78	0x3e5b7944	0.21432978
79	0x3dd0af91	0.10189737
80	0x3e907b38	0.28219008
81	0x3d4152c3	0.04719807
82	0xbe2e5877	-0.17025934
83	0xbd2485fa	-0.040166833
84	0x3e877295	0.26454607
85	0xbdaf7e0f	-0.08568966
86	0x3d64c6a3	0.055853497
87	0xbe274fac	-0.16338986
88	0x3dfa6124	0.12225559
89	0x3e1647e1	0.14675857
90	0xbca4f52b	-0.020136436
91	0xbc9c344c	-0.019067906
92	0x3c062d22	0.008189471
93	0x3d266164	0.040620223
94	0x3e1e2ce0	0.15446806
95	0xbd7c0cb8	-0.061535567
96	0xbdb4799e	-0.08812259
97	0xbde880a6	-0.11352663
98	0x3e459b80	0.192976
99	0x3df0efbe	0.11764477
100	0xbc453bb6	-0.012038162
101	0x3e10b788	0.14132512
102	0xbe22b211	-0.1588824
103	0x3c9a53b4	0.01883874
104	0xbd335887	-0.043785598
105	0xbe2b78ff	-0.16745375
106	0x3dc523e0	0.09625983
107	0x3d2ba03d	0.041900862
108	0xbdf4f9e1	-0.11961723
109	0xbcf012f1	-0.029305907
110	0x3dd33b4d	0.10314045
111	0xbcde49a8	-0.027134731
112	0xbbe546fc	-0.0069969874
113	0x3d405c81	0.04696322
114	0x3e031cbb	0.12803929
115	0x3d074308	0.03302291
116	0x3d122504	0.035679832
117	0xbe10eac6	-0.14152059
118	0x3d591508	0.052998573
119	0x3e692621	0.22768451
120	0xbd9d46c8	-0.07679516
121	0xbe187e4e	-0.14891931
122	0xbe3ad041	-0.18243505
123	0xbd356feb	-0.044296186
124	0x3dceea47	0.101032786
125	0x3e0fc165	0.14038618
126	0xbe2b7a90	-0.16745973
127	0x3d46c2ee	0.048525743
128	0x3da601da	0.08105822
129	0xbc89e217	-0.01683144
130	0x3cf6eae8	0.030141309
131	0xbda11db0	-0.078669906
132	0x3d727eb4	0.059202865
133	0xbd983aaa	-0.07433064
134	0x3dcd129a	0.100133136
135	0x3db5adc2	0.08871032
136	0xbcc13b0a	-0.023587722
137	0x3cb250c9	0.021767037
138	0x3c27ac9a	0.0102340225
139	0x3db0b828	0.08628875
140	0x3d2f17f4	0.042747453
141	0xbdc2cb80	-0.09511471
142	0xbe18b5b0	-0.14913058
143	0xbe01391a	-0.12619439
144	0x3d8f1935	0.0698723
145	0x3bff5d6d	0.0077931196
146	0xbc05737f	-0.008145212
147	0xbdfcd070	-0.12344444
148	0x3e390b59	0.18070735
149	0x3db04a95	0.086079754
150	0x3e3ad253	0.18244295
151	0xbc6ae4e2	-0.0143367965
152	0x3d76c919	0.060250375
153	0x3d30da0a	0.04317669
154	0x3d143723	0.036185395
155	0xbd2de72c	-0.04245679
156	0x3d4ffe2b	0.050779503
157	0x3e3d8d4c	0.18510932
158	0xbd6b56d0	-0.057455838
159	0x3e2dc998	0.16971433
160	0x3e48deb6	0.19616207
161	0x3e1a7491	0.15083529
162	0xbdbb7b12	-0.09154333
163	0xbd687a82	-0.056757458
164	0x3dd13117	0.10214441
165	0xbdaa507b	-0.08316132
166	0xbe1d3547	-0.15352355
167	0xbc60752a	-0.013699809
168	0xbd936f05	-0.0719891
169	0x3dff445e	0.12464212
170	0xbd9b4807	-0.075820975
171	0x3dd965b7	0.10615104
172	0x3cb43293	0.021996772
173	0x3e36f65e	0.17867419
174	0xbd9dd152	-0.0770594
175	0xbcf934b6	-0.030420642
176	0x3d1f004c	0.038818642
177	0xbc7e2f9d	-0.015514282
178	0xbe011f40	-0.12609577
179	0xbbf9f5cf	-0.0076281796
180	0xbd65c58f	-0.05609661
181	0xbe525a54	-0.2054227
182	0x3e141a2e	0.14463112
183	0xbdb9d422	-0.09073664
184	0xbd5a318f	-0.05326992
185	0x3e15b88e	0.14621183
186	0xbc92428e	-0.017854001
187	0x3c8fe235	0.017563919
188	0xbe2c34f9	-0.16817082
189	0x3de47a7c	0.111561745
190	0xbde70a8e	-0.1128131
191	0xbc152551	-0.009103135
192	0xbd1b56f7	-0.037924733
193	0x3e0698d7	0.13144241
194	0xbc2c8119	-0.010528826
195	0x3ceb33fc	0.028711312
196	0x3ca152f8	0.019692883
197	0x3c3af99f	0.011412053
198	0xbd9fee00	-0.07809067
199	0xbdeb283d	-0.11482284
200	0xbe086c74	-0.13322622
201	0x3e1117ef	0.14169286
202	0xbd01e9e9	-0.031717215
203	0xbe3497e2	-0.17636064
204	0xbdcb4c3c	-0.0992665
205	0x3e147fa3	0.14501815
206	0x3e239aa8	0.15976965
207	0xbe33040d	-0.17482014
208	0xbd47d0a6	-0.048782967
209	0x3ab2a2f4	0.0013628886
210	0xbdd31626	-0.10306959
211	0xbe151ec3	-0.14562516
212	0xbe2170fa	-0.15765753
213	0xbd9a6475	-0.07538692
214	0xbe24922e	-0.16071388
215	0xbd1f103c	-0.03883384
216	0xbd63ce48	-0.055616647
217	0x3d32a958	0.04361853
218	0x3da98c7c	0.082787484
219	0xbd8b8e47	-0.068142466
220	0x3cb1e458	0.021715328
221	0x3e2c3378	0.16816509
222	0x3e324efc	0.17412943
223	0x3c6cf790	0.01446332
224	0xbd2ac990	-0.04169613
225	0x3d8a6e24	0.06759289
226	0x3e2825dc	0.16420692
227	0xbdb83e5d	-0.0899627
228	0xbd5849bc	-0.052804694
229	0xbe2bd064	-0.16778713
230	0xbe2943a6	-0.16529712
231	0xbdc025fb	-0.09382244
232	0xbc9ac460	-0.018892467
233	0x3d12a848	0.035805017
234	0x3b4157c0	0.0029501766
235	0x3d2b8320	0.041873097
236	0x3e29534c	0.16535681
237	0xbd28e408	-0.041233093
238	0xbc044e50	-0.008075312
239	0xbd2d2760	-0.04227388
240	0x3d792e54	0.060835198
241	0x3e49d949	0.19711794
242	0x3d04c1e2	0.032411464
243	0xbd2b40e6	-0.04180994
244	0x3e646c6c	0.22306985
245	0xbe000751	-0.12502791
246	0x3d8777ae	0.06614624
247	0xbd66797f	-0.05626821
248	0x3c9d7ac1	0.019223573
249	0xbd375ede	-0.044768207
250	0x3c3ab412	0.011395471
251	0x3d84c179	0.064822145
252	0x3da034b2	0.07822551
253	0xbd85a0fc	-0.06524846
254	0x3d2516c4	0.040304914
255	0xbe250c46	-0.16117963

linear2.bias f4 [30]
0	0xbd9ecf92	-0.07754435
1	0xbe1a24a6	-0.15053043
2	0x3e4f9a27	0.20273648
3	0x3e329418	0.17439306
4	0xbe16fa86	-0.14744005
5	0x3d4c110f	0.049820956
6	0x3dc3daa4	0.09563187
7	0x3b3d26c0	0.0028862208
8	0x3d3dd8d7	0.046349373
9	0xbde96c40	-0.113976
10	0x3e2e7567	0.17036973
11	0x3dbf3e67	0.09338074
12	0x3dbfe89a	0.09370537
13	0x3e1bf5e2	0.15230516
14	0x3cdb5ea0	0.02677852
15	0xbd77c0e3	-0.060486685
16	0xbdb26997	-0.08711546
17	0xbc37e67a	-0.0112243835
18	0x3e591a67	0.21201478
19	0x3d81a29d	0.06329844
20	0x3e07eb1d	0.13273282
21	0xbd92cb23	-0.071676515
22	0xbd9f8e71	-0.077908404
23	0xbe188cdb	-0.14897482
24	0x3a91f799	0.0011136412
25	0xbe030d49	-0.12798037
26	0xbd849579	-0.06473822
27	0xbdd6f45a	-0.10495825
28	0x3d405500	0.046956062
29	0xbd69262f	-0.05692118

linear3.weight f4 [1, 30]
0	0x3d510584	0.05103065
1	0x3cf42ffa	0.029808033
2	0x3dbe6643	0.092968486
3	0x3d4b35d7	0.049611893
4	0xbb0414a6	-0.002015391
5	0xba8d8681	-0.0010797532
6	0xbccefca9	-0.025266962
7	0x3b1ebeec	0.0024222685
8	0x3d9aab37	0.07552188
9	0x3d75e4b4	0.06003256
10	0x3cdfae35	0.027304748
11	0x3a3e500c	0.0007259853
12	0x3cc7f593	0.024409091
13	0x3d2ce844	0.042213693
14	0x3d7bd6b5	0.061484057
15	0x3d1bd7e0	0.03804767
16	0xbc40bc93	-0.01176371
17	0xbc4638aa	-0.012098471
18	0xbe053b8d	-0.13010998
19	0x3c35a7b3	0.011087346
20	0x3c14fbef	0.009093269
21	0x3da6722b	0.081272446
22	0x3b0f0da0	0.002182819
23	0x3c215268	0.009846307
24	0xbd831da7	-0.0640214
25	0x3be5b626	0.007010239
26	0x3d4cd519	0.050007913
27	0x3de70dc8	0.112819254
28	0x3a6bc790	0.00089942757
29	0xbc84ef38	-0.01622735
