codes/DDPG/saved_model/20210726-202646/checkpoint.pt (torch_old, 5373 bytes, 5 tensors)

linear1.weight f4 [30, 3]
000000 40 9f c7 bd b6 8d 73 3e 67 b8 f3 3e 69 1e ce 3d
       -0.097471714 0.23784527 0.47601625 0.10064394
000010 bb 58 31 3e a5 ca ac be 25 f1 c6 bc 0c ea 16 be
       0.17319004 -0.33748356 -0.024284909 -0.1473772
000020 b7 91 9d be 34 a1 ec 3d 71 e3 9c be 5a de 34 be
       -0.30775234 0.115541846 -0.30642274 -0.17662945
000030 4b 3c b4 3e a4 47 11 3f 06 d5 77 be 92 f5 b6 3e
       0.3520225 0.5674994 -0.24202356 0.3573423
000040 59 b9 3d be 89 6a 56 be 80 9d fd be bf 86 30 bf
       -0.18527736 -0.20939077 -0.49534225 -0.68955606
000050 41 0c 9e be 6c 78 15 3e fb 90 b0 be e9 c3 c5 be
       -0.30868724 0.14596719 -0.3448561 -0.3862603
000060 1a 3f 0e be 4c 37 e9 3e 2c fa 23 bf 20 56 3a be
       -0.13891259 0.4555 -0.64053607 -0.18196917
000070 10 4e 0b 3f d7 37 a1 3e d5 8f 97 3e 7a 1c 34 be
       0.5441599 0.31487915 0.29601923 -0.17588988
000080 cc 15 d1 3d f5 fa 50 3e 1b 9a 65 3e 72 bb 52 be
       0.102092355 0.20408233 0.22422068 -0.20579317
000090 3e 0b d8 3e 9c 83 06 bf 8b fa eb 3e c8 7e 0e 3e
       0.42196077 -0.5254457 0.46089587 0.1391555
0000a0 cb 51 9d bc 4a 21 cb be 15 f8 b9 be 01 20 a5 bd
       -0.019204041 -0.39673835 -0.36322084 -0.08062745
0000b0 dd 8d 09 3f bb 68 09 3f eb 5e 29 be f7 3b 53 3e
       0.5373209 0.5367543 -0.16540115 0.20628344
0000c0 be 7a 8a 3e 07 f7 1c bf 20 03 c0 be 27 b6 a0 3c
       0.2704677 -0.61314434 -0.37502384 0.019618107
0000d0 74 ba 15 bf 34 a6 e9 be 05 bd 14 bd 4e 3a cd be
       -0.5848763 -0.45634615 -0.036313076 -0.40083545
0000e0 23 10 89 3e 38 8e 9f be b1 c8 1a bf 50 61 a3 be
       0.26770124 -0.31163192 -0.6046248 -0.3191018
0000f0 b0 8f 48 3e 84 f3 1c bf cf 8a c5 bd b0 14 0e bd
       0.19586062 -0.61309075 -0.09645616 -0.034687698
000100 cf d2 1c 3e 4b 9d df be ff 79 02 be 4c 55 63 bd
       0.15314792 -0.43674693 -0.1274185 -0.055501267
000110 13 7e c1 be be 94 9a 3e 6b 89 8d 3e 32 41 58 3e
       -0.377915 0.30191606 0.27643904 0.2111862
000120 3b fb dc bd 0d b7 74 be dc 7a ca 3e 62 43 da 3e
       -0.10790106 -0.23897953 0.3954686 0.42629534
000130 60 e5 2b 3e b7 bf d1 be 2c 38 b6 bd 74 53 d6 3e
       0.16786718 -0.4096658 -0.08897433 0.41860545
000140 25 e7 eb be 1e 4b c0 be ea 7e 0b be b9 7e 7f be
       -0.46074787 -0.3755731 -0.13622633 -0.24950685
000150 15 45 9d 3e 5f 01 ec be 78 77 bb 3e c7 ae da 3e
       0.30716768 -0.46094796 0.36614585 0.4271147
000160 41 64 cd be 2d 29 c7 be
       -0.4011555 -0.38898602

linear1.bias f4 [30]
000000 73 d4 8c 3e cd d2 cf bd 97 0c 9a be e0 20 0e be
       0.27505836 -0.10147629 -0.3008773 -0.13879728
000010 62 5d 32 be 23 f1 c1 3e be 2a 83 be 30 c4 ca be
       -0.17418435 0.37879285 -0.25618547 -0.39602804
000020 77 2a af be bf 95 82 be ff 39 3d 3e ac 05 cf bd
       -0.34212086 -0.25504872 0.18479155 -0.10108504
000030 5d ff d2 3e 1f 5f 0a 3f 87 39 f6 bc 30 89 02 bf
       0.41210452 0.54051393 -0.030056728 -0.5099058
000040 20 e0 54 be c5 6f 95 be de 15 a6 3c 45 d7 d4 be
       -0.20788622 -0.29186836 0.020274099 -0.41570488
000050 4e fc c4 3d 2b 28 61 bd 1c da 10 3d e0 cb 1e 3d
       0.09618436 -0.054969948 0.035364255 0.03876865
000060 63 19 fa be 76 6a 71 3d d4 0a 9a bd a5 06 2f 3d
       -0.48847494 0.05893942 -0.075215966 0.042730946
000070 06 99 b5 3d 4f a4 cb bd
       0.088670775 -0.09943449

linear2.weight f4 [30, 30]
000000 c0 46 e0 3d 59 6f 50 3e 81 7e 0a bd b7 b4 51 3e
       0.109509945 0.20354976 -0.03381205 0.20479093
000010 ab 98 0c 3e c2 06 ca 3b 8a a3 80 3d 63 ef b8 bd
       0.13730113 0.0061653564 0.062811926 -0.090300344
000020 38 11 e5 3d 60 ca 1b be 0c 55 81 bd 88 3b 86 3d
       0.11184925 -0.15213919 -0.063150495 0.065543234
000030 c8 40 80 3d e7 0b 92 bd 86 90 d1 3d 8d 51 cb bd
       0.06262356 -0.071311764 0.10232644 -0.09927664
000040 80 90 87 3c 57 d3 e2 3d 88 89 a9 3d 83 8a e7 3d
       0.016548395 0.11075466 0.08278185 0.11305716
000050 f0 4f 5b 3e 65 a1 51 3e 80 38 12 bb d6 2f 0d 3e
       0.21417212 0.20471723 -0.0022311509 0.13787779
000060 97 ea 9e 3c 78 c7 dd bd b4 64 ab bc 30 d5 25 3d
       0.01939897 -0.10829061 -0.020922042 0.040486515
000070 8b 6f c6 3d 87 ea 86 3b e2 f2 0c 3e da ae 26 bd
       0.09689244 0.0041173133 0.13764527 -0.040694095
000080 4b 1e 05 be 74 7a c5 3d eb 26 58 3c eb 47 72 3e
       -0.12999837 0.09642497 0.0131928725 0.23660247
000090 c8 fd c9 3d f7 56 5c 3e 9d 2f 8f 3d 72 0f 2f bc
       0.09862858 0.2151755 0.069915034 -0.010684835
0000a0 26 b0 13 be b1 3c d6 bd 27 18 17 be dc ad ec bd
       -0.14422664 -0.10460795 -0.14755307 -0.115565985
0000b0 b8 43 f0 bd ea 01 5b 3d a2 25 06 3e 4c e4 77 3d
       -0.11731666 0.053468622 0.13100293 0.060520455
0000c0 c2 27 a9 3d d3 6d 0c 3e ec e9 d0 bc 2f d4 e5 bb
       0.08259536 0.1371377 -0.025502168 -0.0070138196
0000d0 31 71 b0 3d 34 e7 b2 3d 0b c0 82 3d 9d b0 09 3d
       0.086153395 0.08735505 0.063842855 0.033615697
0000e0 24 7e 1f 3e 6d 04 a2 bc e2 67 1f bd 82 97 3c bd
       0.15575463 -0.019777501 -0.03891743 -0.046042927
0000f0 be d7 d8 3d 7f e6 e8 3d 39 25 de 3d 9c 5a 9d 3d
       0.105880246 0.11372089 0.108469434 0.07683298
000100 21 e2 1e be 58 09 48 3e 49 3a 61 3e 06 13 fc bb
       -0.15515949 0.19534814 0.2199489 -0.0076926975
000110 da d2 a1 bd 80 cb 1c bd b9 14 d0 bd 73 fa 64 3d
       -0.07901545 -0.03828001 -0.101602025 0.05590291
000120 9a 94 34 3d 8b ab 38 3d b9 b9 f5 bb fe 9d 88 bd
       0.04408703 0.04508547 -0.0074989465 -0.066707596
000130 76 db 58 bd d2 77 ca 3d 1c a8 66 3d 09 33 84 3e
       -0.05294367 0.09886135 0.056312665 0.25820187
000140 2c 4d 24 3e 89 78 c9 bd fe 46 85 bd 9f 93 0a be
       0.16045064 -0.098374434 -0.06507681 -0.13532875
000150 a0 32 11 be ca 71 6e 3c 70 8d 71 3e ac e7 df 3d
       -0.14179468 0.014553497 0.2358911 0.1093286
000160 dc 45 a7 bd 6a 00 1b bb 5b aa 90 3d d3 50 27 bd
       -0.081676215 -0.002365137 0.07063743 -0.040848564
000170 fb eb 04 3e 16 27 1b 3e c4 92 3b 3d 40 8c 9a 3a
       0.12980644 0.15151629 0.045794263 0.0011791065
000180 db 87 21 be bf e8 7a bd d1 85 eb 3d e0 2d e7 3d
       -0.15774481 -0.06125712 0.11500133 0.11288047
000190 02 38 c3 3d 29 79 ad bd 99 35 ea bd 2c 3a 0f 3e
       0.09532167 -0.08470375 -0.11436004 0.13987035
0001a0 95 41 52 be 5e d0 df bd 3d b3 1a be 15 c3 18 3e
       -0.2053283 -0.10928415 -0.15107436 0.14918168
0001b0 d8 35 56 be 6e 17 d3 bd 8c cc 0d bd 44 41 72 3d
       -0.20918977 -0.10307203 -0.0346189 0.059144273
0001c0 52 de fb 3d 33 f5 bc bc ea 92 5c be 05 72 12 be
       0.122982636 -0.023066139 -0.21540418 -0.14301307
0001d0 7f fc 71 3d 81 41 39 bd 34 e7 f9 3d 3d a3 67 3b
       0.05907869 -0.045228485 0.122023016 0.00353451
0001e0 c2 b7 28 3e b2 51 1f 3e 8d db 11 bc 1b b3 9c bb
       0.16476348 0.15558508 -0.008902443 -0.004782093
0001f0 50 c4 c2 bd d2 8d 2c bd 6a 81 b3 bd d8 db c8 3d
       -0.095101 -0.042127438 -0.08764918 0.09807557
000200 43 d3 1b bd a9 c9 47 be 30 72 82 bd d9 65 d7 3c
       -0.03804327 -0.19510521 -0.06369436 0.026293682
000210 bf 72 24 3e 4a ff 07 3e 5a a4 7d bd bc e8 14 3e
       0.16059397 0.13280979 -0.061924316 0.14541906
000220 39 21 5b 3e 86 14 d3 bd 55 91 9b 3d bb 32 0c 3e
       0.21399392 -0.10306649 0.07596079 0.13691227
000230 69 71 86 bd 72 70 33 3e 07 04 fd 3d 15 f0 a5 bd
       -0.065646 0.17523363 0.12354284 -0.08102433
000240 b1 bb b5 bd 39 8f 64 bd af 56 2a 3e 23 e3 68 bd
       -0.0887369 -0.05580065 0.1663463 -0.05685724
000250 1d 6b 00 3e 2c b1 d9 3d 9f ea f8 bd 00 2c ea 3c
       0.1254086 0.10629496 -0.121541254 0.028585434
000260 5b ac 9a bd 7d 8e 1a 3e d1 76 0e be f0 6e 24 3e
       -0.075524054 0.15093417 -0.13912512 0.16057944
000270 b8 78 e4 3c 0e 20 0b bd ac e2 39 bc 2d 93 9c bc
       0.027889594 -0.033966117 -0.011345547 -0.019113148
000280 49 46 27 be ad b6 4f 3e 9f 57 e8 bd 88 f6 d6 bd
       -0.16335405 0.20284529 -0.113448374 -0.10496241
000290 e8 73 1f 3d 61 46 ee 3d 5d 36 b1 3d b3 35 4e bd
       0.038928896 0.116345175 0.08652947 -0.05034418
0002a0 f9 54 1d be 40 5b b9 3d 4a 65 5f bc 41 8e 18 3e
       -0.15364446 0.09050608 -0.013634989 0.14898016
0002b0 f6 78 8d bd 6a d0 b3 3d 12 cf 69 3c eb 12 53 3d
       -0.06907837 0.08779986 0.014270561 0.051531713
0002c0 41 6c ca bc 48 74 d5 3d 50 a4 79 bd 2c 89 18 3e
       -0.024709823 0.104225695 -0.060947716 0.14896077
0002d0 b1 33 97 bd 8e 13 4c 3e b0 18 9b 3d a8 a2 06 be
       -0.07382906 0.19929335 0.07573068 -0.13147986
0002e0 66 d9 da 3b 1f 2b 1d bd b7 39 d4 3d 37 4e f1 bc
       0.006678748 -0.0383712 0.10362571 -0.029456241
0002f0 9f 97 f0 bd de c0 06 3c 12 c1 01 3d e0 53 28 3e
       -0.117476694 0.008224694 0.031678267 0.16438246
000300 0f 92 ce 3d 50 26 c0 3c 84 37 29 be f3 77 08 be
       0.10086452 0.023455769 -0.16525084 -0.13327007
000310 2f 26 13 be 37 4e f3 3d b3 3f 15 be 16 3b 02 3e
       -0.14370035 0.11880153 -0.1457508 0.12717852
000320 26 f6 5e be 23 91 49 3d c7 5d 78 3d 2a 44 80 3d
       -0.21773586 0.04921068 0.060636308 0.06263001
000330 74 8e 69 bd a9 12 27 3e c4 e4 80 3d a9 19 0e be
       -0.05702062 0.16315712 0.062936336 -0.13876976
000340 6c 74 5a 3c c5 86 10 be b3 6f b1 3d f7 a5 a4 3d
       0.013333421 -0.1411391 0.08663883 0.08039468
000350 db 92 13 3d 06 40 9e bd 03 2b 77 3d d3 1d 86 3d
       0.036028724 -0.07727055 0.060343754 0.06548657
000360 4a 63 2e 3e 90 57 3f 3e 8e f7 3b 3e 9c 0d ab bd
       0.17030063 0.18685746 0.18356153 -0.08352205
000370 d8 35 d5 bd 6d a5 52 3d 0a 62 34 3d 48 59 4e 3e
       -0.104106605 0.051427294 0.04403881 0.20151246
000380 61 c5 5b bd 1e 29 12 be fd 9a ea bd f2 26 43 3e
       -0.053655032 -0.14273497 -0.11455343 0.19057825
000390 b7 0b 16 3e a5 87 65 3e c6 4a 78 3e e9 4f f0 bd
       0.14652906 0.22415026 0.24247274 -0.11733992
0003a0 53 56 ee bd f0 96 0c be c0 c0 74 bd a3 5e c4 3d
       -0.11637559 -0.13729453 -0.059754133 0.09588363
0003b0 d3 a3 c9 bd a6 fb c0 3c c9 a0 ce 3c c4 8f da bd
       -0.098457 0.023557495 0.025223153 -0.10671952
0003c0 cc 44 11 3e d5 a8 49 3e b4 9c 9d 3d 1a 3e 53 3d
       0.141864 0.1969331 0.076959044 0.051572897
0003d0 a2 b0 44 bd f3 fc c1 3d c7 2b 61 3d 9d f2 a9 3d
       -0.048020013 0.09472074 0.05497339 0.08298228
0003e0 4b a4 3b 3e 22 9c a1 3d 35 12 24 3b c2 a9 fd bc
       0.18324392 0.07891108 0.0025035266 -0.030964736
0003f0 81 e5 19 be 03 5c c6 3d 19 30 91 bd c7 a6 2c be
       -0.15028955 0.096855186 -0.07089252 -0.16860496

linear2.bias f4 [30]
000000 09 cb 83 3d d4 f8 95 3d dc 51 3e 3d 21 4b 0a 3e
       0.0643521 0.07322851 0.046464786 0.13505222
000010 ad 9c 1e bd 44 2a 34 3e 9d 8e e6 3d 6d b9 80 3c
       -0.038723636 0.17594248 0.1125767 0.015713418
000020 8d e3 a0 3d 48 56 44 3e a5 ca 3c 3d 2f 12 f4 3d
       0.07855902 0.19173539 0.046091694 0.11917531
000030 13 68 aa bb 8d 10 4a bd 0e 61 2d 3e da 4a 8a bd
       -0.005200395 -0.04933219 0.16931555 -0.06752558
000040 a1 df 92 3d 52 15 3d 3e 29 fb e7 bd 90 b3 51 3e
       0.0717156 0.18465164 -0.11327202 0.20478654
000050 cc be 98 3c a4 c7 36 3e e7 c8 d3 3d 3a 60 82 3d
       0.018645667 0.17849594 0.103410535 0.0636601
000060 56 7d 8b 3c 91 3a 01 be 38 20 45 bd cf db f2 3d
       0.017027538 -0.12619998 -0.04812643 0.118583314
000070 06 c9 d2 bc 83 09 e9 3d
       -0.025730621 0.11378767

linear3.weight f4 [1, 30]
000000 45 0f ee 3a 99 08 62 3d 3e cc be 3d d2 0f 8f bc
       0.001816251 0.05518398 0.093163 -0.017463598
000010 7f 99 4b 3c 51 ec aa bb 9e 50 9f bc bc f0 35 3d
       0.012426733 -0.0052161594 -0.019447621 0.044419035
000020 24 2d 59 3d 1e 88 47 3d f3 a0 28 bc 9b 44 fc ba
       0.053021565 0.048713796 -0.0102922795 -0.001924652
000030 76 be 09 bc 63 b0 1e bc 48 82 32 3d e8 32 a6 bc
       -0.008407226 -0.009685609 0.043581277 -0.020287946
000040 99 73 a8 bc 6a 78 89 bc a0 48 49 3c 73 dd cb 3d
       -0.020562934 -0.01678105 0.012285382 0.099543475
000050 54 4d de 3d 22 d6 ab 3d c5 77 a7 bc 39 61 e1 bc
       0.10854593 0.08390452 -0.020442853 -0.02751218
000060 65 d9 98 3d 00 e1 a6 b9 40 fb cc 3d c0 48 f4 bb
       0.0746334 -0.00031829625 0.1000886 -0.0074549615
000070 df 43 fd bc 28 1f af 3b
       -0.030916153 0.0053442903
