codes/DDPG/saved_model/20210726-171833/checkpoint.pt (torch_old, 5373 bytes, 5 tensors)

linear1.weight f4 [30, 3]
-0.21726426 -0.17776135 0.18607739 0.18032497 0.5899819 0.20368291 0.26646757 0.6384561
0.033653866 -0.18219909 -0.42713168 0.4672978 -0.368379 -0.4386444 -0.59601045 0.5316345
-0.53636384 0.20847094 0.46708974 -0.2491207 -0.25993067 0.28600305 0.21331932 -0.3213475
0.15813881 0.42440653 0.17179464 0.14302868 0.3603648 -0.31201658 -0.2390465 -0.024807561
0.49518374 -0.33394855 0.14830798 0.15517296 -0.32734206 0.4295174 0.39086652 0.22573969
-0.2728417 0.24925135 -0.5437329 0.38642815 0.4940655 -0.107637264 0.2657116 -0.6591595
0.4705059 0.4115728 0.5532415 0.32009208 0.038846616 0.37984556 -0.17360768 0.3905282
0.5690767 0.24650851 0.10776317 0.52881837 0.07135073 0.31874084 -0.119960226 -0.5543205
-0.26609203 0.52786535 -0.11771173 -0.23574899 0.17521012 -0.26694196 -0.38701448 0.24693926
-0.39011782 -0.2897958 -0.3521045 0.12434725 0.20702234 -0.15621363 0.09889211 -0.52449906
-0.5005676 -0.4424822 0.49153534 0.30570915 -0.36950994 -0.60426044 0.26522645 -0.037107307
-0.1252505 -0.35606855
00000000: 867a 5ebe 1207 36be 128b 3e3e 1ca7 383e
00000010: 0e09 173f 4192 503e 706e 883e dc71 233f
00000020: a3d8 093d 6692 3abe 01b1 dabe a841 ef3e
00000030: 2c9c bcbe 0096 e0be 2494 18bf 3319 083f
00000040: 244f 09bf 6879 553e 6326 ef3e 7f19 7fbe
00000050: a215 85be fe6e 923e 6170 5a3e a987 a4be
00000060: 24ef 213e d04b d93e efea 2f3e 1c76 123e
00000070: bc81 b83e a3c0 9fbe 9bc8 74be 3a39 cbbc
00000080: b988 fd3e 4efb aabe 0cde 173e a9e5 1e3e
00000090: 6199 a7be b4e9 db3e a81f c83e 4e28 673e
000000a0: e8b1 8bbe bf3b 7f3e 1432 0bbf e9d9 c53e
000000b0: 27f6 fc3e ed70 dcbd 5a0b 883e adbe 28bf
000000c0: 26e6 f03e acb9 d23e 3ca1 0d3f 1ce3 a33e
000000d0: a11d 1f3d 1e7b c23e 36c6 31be 50f3 c73e
000000e0: 03af 113f ba6c 7c3e f0b2 dc3d a460 073f
000000f0: 5520 923d 0032 a33e b5ad f5bd f3e7 0dbf
00000100: 373d 88be 2f22 073f d912 f1bd 2f68 71be
00000110: 486a 333e 9eac 88be c326 c6be a5dd 7c3e
00000120: 86bd c7be 1d60 94be 0b47 b4be c5a9 fe3d
00000130: aafd 533e 77f6 1fbe f287 ca3d 9245 06bf
00000140: 3325 00bf 078d e2be 85aa fb3e e985 9c3e
00000150: 6830 bdbe d0b0 1abf c3cb 873e d5fd 17bd
00000160: ab41 00be 9e4e b6be

linear1.bias f4 [30]
0.18222539 -0.03367383 0.6078078 0.16374946 -0.29249105 0.16193017 -0.0025346722 0.5908551
0.3664581 0.60068077 -0.44806564 0.47293502 -0.121544085 0.59586036 -0.5438438 0.34703225
-0.38768297 0.38058028 -0.18485267 -0.436566 0.60606766 -0.2759036 0.14833823 0.5592674
-0.20404239 0.46804082 0.12803033 -0.3575577 0.4737527 0.33888903
00000000: 4b99 3a3e 92ed 09bd 4b99 1b3f f0ad 273e
00000010: 63c1 95be 06d1 253e be1c 26bb 4842 173f
00000020: 65a0 bb3e 37c6 193f dc68 e5be 8a24 f23e
00000030: 1bec f8bd 4e8a 183f 5939 0bbf 36ae b13e
00000040: 627e c6be 6bdb c23e 054a 3dbe 9485 dfbe
00000050: 4027 1b3f 3d43 8dbe fae5 173e 262c 0f3f
00000060: 7df0 50be 0ca3 ef3e 621a 033e ce11 b7be
00000070: b78f f23e dd82 ad3e

linear2.weight f4 [30, 30]
0.06965732 -0.116362795 -0.011473443 -0.06984591 0.037086755 -0.0589614 -0.18460447 -0.12468244
0.06302184 -0.092064075 0.020431722 0.16889948 0.1857828 0.040788572 0.15268026 -0.023947245
0.008360837 0.002436455 0.0642692 -0.16350856 -0.1249671 0.15744635 -0.048255052 -0.096718475
-0.12443516 0.057621878 -0.15983416 -0.1332667 0.022366231 -0.16312777 0.03142255 -0.17057237
0.104109935 -0.18431371 0.039883666 -0.1792904 0.16183142 0.15710002 0.06314792 0.09866166
-0.0127739 0.051157225 -0.1623181 0.067069635 0.07740072 0.25283816 0.06432864 -0.08931138
-0.058952145 0.043278042 -0.10502088 -0.12826674 -0.07016654 0.11364511 0.27032447 -0.10665014
0.0544273 -0.03478837 0.0541801 0.25156158 -0.13822271 -0.023108575 0.14817952 0.12797529
0.055563718 0.05695989 -0.05025083 -0.060769003 0.0579943 0.1418978 -0.15949835 -0.036667116
-0.106388465 -0.1461589 -0.05086988 -0.09887025 -0.09792317 0.106760375 -0.080099806 0.10262414
-0.08211939 0.17488149 0.15437426 0.029176058 -0.026245356 -0.14315718 0.10688925 -0.078369
-0.11342172 0.013708487 0.17922677 0.14033386 -0.17708366 0.0036479898 0.18255179 -0.08440255
0.2448627 0.2505552 -0.13580613 -0.10189532 -0.027837828 0.06665613 -0.1927674 -0.094839625
-0.0902498 0.20118873 0.061608758 -0.16493595 0.0024388102 0.035803348 0.19065288 0.17118807
0.056482837 0.20880093 0.055828888 0.09431565 -0.047512174 -0.10258909 -0.013696602 0.16317277
-0.06852607 0.21029057 0.2524778 0.2251122 0.10821905 0.15593222 0.018612599 0.033443592
0.14201573 -0.044239026 -0.07417416 0.06855012 0.079674214 0.0060841814 0.07748875 -0.09433448
-0.07829233 0.23668495 0.116371706 0.20425025 0.017317414 -0.08310969 0.050231107 -0.041706696
0.07893055 0.017518517 0.043665163 -0.005984698 0.12770243 -0.14023903 0.12589544 -0.09307418
-0.004515469 -0.00947772 -0.029283598 -0.09304057 -0.14649716 -0.160754 -0.004192546 -0.09620807
0.009739593 0.08231887 0.0015479326 -0.13737804 0.053371742 -0.14213778 -0.00066410005 -0.15677269
0.033990487 -0.10417618 0.16879603 -0.12300849 -0.12997971 -0.16385463 0.08089456 -0.13369386
0.010055006 -0.0021894276 -0.12585782 0.008285701 -0.023756629 0.16456397 0.00034125225 0.09037086
-0.15223531 0.11425804 -0.13156164 -0.06372757 0.17892496 0.13083087 0.006036288 0.25133416
0.22668321 0.093025096 -0.0182084 0.03627865 -0.06555833 0.08316779 0.21362479 0.13322729
0.24215418 0.10009806 0.07287307 0.21213968 -0.18665254 -0.08770348 -0.088507645 -0.05551388
0.054148793 -0.11438693 -0.005475655 -0.056490883 -0.08279842 0.1816436 -0.06889704 -0.15127821
-0.05650176 0.0109265 0.06572446 0.039057463 0.091312796 -0.13380009 0.045837596 -0.046021223
-0.11967554 -0.12651384 -0.060348168 -0.16645502 -0.131241 -0.04974389 0.0050082803 -0.12731005
-0.096305884 -0.061733462 -0.03819923 0.06254539 -0.17828561 -0.016157538 -0.052892223 -0.06439095
0.13404211 -0.071774565 0.10800309 0.06010516 0.24013393 0.066589884 0.018540546 -0.061016377
-0.18513788 -0.10100167 -0.011970861 0.09399855 -0.14780112 -0.07141413 0.01859915 0.059729435
00000000: 7fa8 8e3d 9e4f eebd 1cfb 3bbc 5f0b 8fbd
00000010: 48e8 173d 8281 71bd f408 3dbe 8259 ffbd
00000020: 9811 813d 178c bcbd 6d60 a73c fcf3 2c3e
00000030: d93d 3e3e eb11 273d 3758 1c3e 032d c4bc
00000040: e4fb 083c efac 1f3b 929f 833d ca6e 27be
00000050: c0ee ffbd 9e39 213e 17a7 45bd 5614 c6bd
00000060: dcd7 febd eb04 6c3d 91ab 23be 1177 08be
00000070: 6339 b73c f70a 27be efb4 003d 86aa 2ebe
00000080: 9737 d53d bcbc 3cbe 0e5d 233d e797 37be
00000090: 23b7 253e d4de 203e b253 813d 200f ca3d
000000a0: 9f49 51bc 3d8a 513d b736 26be ce5b 893d
000000b0: 4584 9e3d 0174 813e bcbe 833d e3e8 b6bd
000000c0: ce77 71bd 5144 313d 3015 d7bd 5b58 03be
000000d0: 7ab3 8fbd c4be e83d f867 8a3e 636b dabd
000000e0: 29ef 5e3d 407e 0ebd f4eb 5d3d aecc 803e
000000f0: 418a 0dbe 324e bdbc 5fbc 173e f40b 033e
00000100: c896 633d c64e 693d d0d3 4dbd ebe8 78bd
00000110: 6e8b 6d3d a84d 113e 8953 23be 4230 16bd
00000120: 32e2 d9bd aeaa 15be ef5c 50bd 7c7c cabd
00000130: f18b c8bd 2fa5 da3d 5e0b a4bd 9b2c d23d
00000140: 362e a8bd 2214 333e 4914 1e3e a102 ef3c
00000150: 8000 d7bc cc97 12be c0e8 da3d ed7f a0bd
00000160: a649 e8bd 9099 603c 3987 373e aeb3 0f3e
00000170: 6b55 35be 1d13 6f3b dbee 3a3e 3edb acbd
00000180: 4abd 7a3e c548 803e c310 0bbe 7eae d0bd
00000190: 280c e4bc 0283 883d d164 45be 473b c2bd
000001a0: e3d4 b8bd 6b04 4e3e 7759 7c3d f8e4 28be
000001b0: 72d4 1f3b 88a6 123d 823a 433e ed4b 2f3e
000001c0: 8c5a 673d e9cf 553e d5ac 643d 9028 c13d
000001d0: 209c 42bd 3b1a d2bd b667 60bc c316 273e
000001e0: 6557 8cbd 6956 573e c544 813e d083 663e
000001f0: f3a1 dd3d b2ac 1f3e 7379 983c 26fc 083d
00000200: 926c 113e fb33 35bd 9fe8 97bd 0164 8c3d
00000210: 3c2c a33d d05d c73b 6cb2 9e3d 7032 c1bd
00000220: bb57 a0bd 8a5d 723e 4a54 ee3d fa26 513e
00000230: 40dd 8d3c 6a35 aabd 22bf 4d3d a4d4 2abd
00000240: 57a6 a13d fe82 8f3c 3eda 323d 491b c4bb
00000250: 6dc4 023e d29a 0fbe bcea 003e ad9d bebd
00000260: 80f6 93bb 7048 1bbc 28e4 efbc 0e8c bebd
00000270: 5a03 16be b29c 24be a061 89bb bd08 c5bd
00000280: d092 1f3c cc96 a83d 00e4 ca3a d4ac 0cbe
00000290: 549c 5a3d 918c 11be 0017 2eba 0589 20be
000002a0: 9c39 0b3d 525a d5bd ded8 2c3e e0eb fbbd
000002b0: 6719 05be 82c9 27be 0cac a53d 0be7 08be
000002c0: c0bd 243c 807c 0fbb dfe0 00be c0c0 073c
000002d0: 439d c2bc 7583 283e 1aea b239 5c14 b93d
000002e0: 93e3 1bbe 1f00 ea3d 18b8 06be 9a83 82bd
000002f0: 1b38 373e 87f8 053e 0ecc c53b dfae 803e
00000300: a51f 683e f183 be3d c829 95bc ec98 143d
00000310: 7243 86bd e053 aa3d 75c0 5a3e bc6c 083e
00000320: 44f7 773e 3600 cd3d 7a3e 953d 253b 593e
00000330: d821 3fbe e29d b3bd 7f43 b5bd 8662 63bd
00000340: 20cb 5d3d b243 eabd 206d b3bb fc62 67bd
00000350: 3892 a9bd c800 3a3e e419 8dbd ade8 1abe
00000360: 646e 67bd 1005 333c 8c9a 863d b8fa 1f3d
00000370: 3402 bb3d e402 09be 34c0 3b3d c080 3cbd
00000380: 7318 f5bd d88c 01be a42f 77bd 2f73 2abe
00000390: 0a64 06be 40c0 4bbd 801c a43b 915d 02be
000003a0: 053c c5bd 3adc 7cbd cc76 1cbd cc17 803d
000003b0: 8190 36be d05c 84bc 84a5 58bd 67df 83bd
000003c0: 5642 093e 8bfe 92bd b930 dd3d d430 763d
000003d0: abe5 753e 4760 883d 58e2 973c 4fec 79bd
000003e0: c994 3dbe f7d9 cebd 6e21 44bc 5082 c03d
000003f0: 2d59 17be 9241 92bd 3f5d 983c daa6 743d

linear2.bias f4 [30]
-0.13035044 0.16935217 -0.12124128 -0.026100362 -0.035747394 0.059904262 0.058058586 0.12412453
-0.01325178 0.07139911 -0.04225631 0.18151982 0.19104598 -0.1011941 -0.12399095 -0.08420431
-0.106628336 0.19959618 0.11433038 -0.046753433 -0.09284238 0.11572772 0.13683298 0.14728187
-0.08564318 0.00065846584 -0.100882605 0.25149992 -0.15407087 -0.025808617
00000000: 967a 05be a86a 2d3e 594d f8bd 6dd0 d5bc
00000010: dc6b 12bd 2c5e 753d d7ce 6d3d 0035 fe3d
00000020: fe1d 59bc b239 923d f414 2dbd 55e0 393e
00000030: 8fa1 433e da3e cfbd f8ee fdbd 4f73 acbd
00000040: f55f dabd f162 4c3e 0c26 ea3d 8780 3fbd
00000050: 2524 bebd a802 ed3d f21d 0c3e 0fd1 163e
00000060: b165 afbd e59c 2c3a 8a9b cebd 99c4 803e
00000070: c1c4 1dbe 986c d3bc

linear3.weight f4 [1, 30]
-0.017606854 0.06148635 0.0038088823 0.08464466 -0.0692349 0.0027966928 -0.0650022 -0.00297467
0.07194522 0.028803611 -0.068335734 0.07715328 0.09702103 0.042336803 0.072986476 0.026887273
0.07545165 0.07430442 0.06559771 0.048493464 0.049068507 0.023227341 0.027555753 0.07247054
-0.03115956 0.08023911 -0.07298695 -0.06376326 0.03840034 0.11092752
00000000: 403c 90bc 1cd9 7b3d 719e 793b 2e5a ad3d
00000010: 07cb 8dbd b848 373b e01f 85bd aef2 42bb
00000020: 0458 933d 8df5 eb3c 9bf3 8bbd 8a02 9e3d
00000030: f6b2 c63d 5b69 2d3d ef79 953d b342 dc3c
00000040: 6586 9a3d ea2c 983d 1858 863d 15a1 463d
00000050: 0ffc 483d 4447 be3c 9abc e13c 6f6b 943d
00000060: 5542 ffbc 6754 a43d 2f7a 95bd 5096 82bd
00000070: ad49 1d3d f82d e33d
