codes/DDPG/saved_model/20210726-202509/checkpoint.pt (torch_old, 5373 bytes, 5 tensors)

linear1.weight f4 [30, 3]
-0.10566929 -0.008652902 0.34150162 -0.45496038 0.02254658 0.088250205 0.11384162 0.3442406
0.13847116 -0.5009513 -0.1322763 0.508975 -0.5850358 -0.5844145 0.020283826 -0.06318598
-0.66072726 -0.076976374 -0.41252238 0.26664513 -0.24722525 0.41249326 0.6381556 0.30882552
0.3776438 -0.46403506 0.31953993 0.33908784 0.25961468 -0.50008315 -0.22609979 0.15165843
0.15546724 0.2562846 -0.35112604 0.6216432 0.46976036 0.4707665 0.35628495 -0.020590322
-0.27437657 0.3789646 -0.39016515 0.21026865 -0.2099214 -0.16235773 0.4540786 -0.3146279
0.07222714 -0.04412104 -0.31272972 -0.1070831 -0.09788239 0.4779883 0.056646924 0.06515027
-0.5294743 -0.5856824 -0.16363166 0.62534964 -0.58156437 0.6532706 0.28917012 0.35254776
0.40727195 0.33977574 0.1999115 0.096249856 0.4213747 -0.48969093 0.023020955 -0.31860465
-0.3931168 -0.20681992 0.43627712 -0.11395864 -0.55648553 -0.14281717 -0.32906982 -0.36515078
-0.52712053 0.04477593 -0.31775802 -0.19638677 0.009402233 -0.24052769 0.47559866 0.15679961
0.0862727 -0.15494747
00000000: 2469 d8bd e7c4 0dbc 4dd9 ae3e 91f0 e8be
00000010: 9bb3 b83c 86bc b43d cc25 e93d 4e40 b03e
00000020: 62cb 0d3e 583e 00bf 7073 07be 304c 023f
00000030: e8c4 15bf 309c 15bf 442a a63c a767 81bd
00000040: 6c25 29bf caa5 9dbd 2236 d3be b685 883e
00000050: 9e28 7dbe 5132 d33e 2a5e 233f 611e 9e3e
00000060: 875a c13e 0196 edbe bd9a a33e ec9c ad3e
00000070: 37ec 843e 7305 00bf b486 67be 594c 1b3e
00000080: ce32 1f3e bc37 833e cbc6 b3be 0224 1f3f
00000090: 6e84 f03e 4f08 f13e fb6a b63e 09ad a8bc
000000a0: 167b 8cbe a607 c23e bac3 c7be aa50 573e
000000b0: a3f5 56be 1b41 26be fe7c e83e e816 a1be
000000c0: d3eb 933d 43b8 34bd 1c1e a0be 624e dbbd
000000d0: 9076 c8bd e2ba f43e 9b06 683d 816d 853d
000000e0: a18b 07bf 48ef 15bf 0f8f 27be ea16 203f
000000f0: 67e1 14bf be3c 273f 1b0e 943e 2481 b43e
00000100: f385 d03e 16f7 ad3e 9ab5 4c3e a51e c53d
00000110: 6dbe d73e c5b8 fabe 7196 bc3c 2620 a3be
00000120: 9b46 c9be 9ac8 53be b75f df3e 2663 e9bd
00000130: d675 0ebf aa3e 12be d77b a8be 0bf5 babe
00000140: 5ff1 06bf f766 373d 2eb1 a2be 9d19 49be
00000150: d30b 1a3c e44c 76be ab81 f33e 1490 203e
00000160: beaf b03d 8daa 1ebe

linear1.bias f4 [30]
0.2670447 0.4723247 0.15865546 -0.1703539 -0.3654995 0.4024241 0.10534393 0.54770094
0.12517832 0.39317498 0.21670425 -0.052498177 0.16370966 -0.5065421 -0.1798566 -0.23326007
-0.09287298 0.5753051 -0.22568518 0.27848974 0.4354592 0.23437311 0.21625903 0.48187163
-0.4726306 -0.26553977 0.31311774 -0.28074443 0.27872047 0.08565077
00000000: 15ba 883e 8bd4 f13e 9476 223e 4171 2ebe
00000010: c022 bbbe 880a ce3e 8fbe d73d 2136 0c3f
00000020: bf2e 003e 3b4e c93e b8e7 5d3e 5408 57bd
00000030: 81a3 273e beac 01bf 542c 38be badb 6ebe
00000040: 3034 bebd 3247 133f 041a 67be 3596 8e3e
00000050: 82f4 de3e 81ff 6f3e 0273 5d3e e1b7 f63e
00000060: a3fc f1be d4f4 87be f850 a03e bcbd 8fbe
00000070: 73b4 8e3e ac69 af3d

linear2.weight f4 [30, 30]
-0.107091725 -0.04911731 -0.018216804 0.10675916 0.17422573 -0.19111404 0.13063087 0.24090345
0.0048748506 -0.100710966 0.00085439737 0.12995099 0.030412368 -0.011021722 0.1547644 0.1684948
0.19226864 0.16547929 0.088786274 0.15661144 0.20572954 -0.09197577 0.11134575 -0.062233124
-0.120563276 -0.24743214 -0.018529069 0.026601765 0.21216352 0.26462194 0.12649605 0.09970735
0.1314593 -0.013226134 0.049258057 -0.048452467 0.051308244 0.017343871 0.14833869 -0.09982403
0.15499842 -0.02719641 -0.04565521 -0.10609437 0.11692612 0.18325734 0.0728023 -0.0054871435
0.06672058 0.18376946 0.23260528 0.13133636 0.0072100773 -0.12543577 -0.067352735 -0.028708685
0.034799043 -0.19557077 0.21233933 0.16628581 0.059065428 -0.015395355 0.2523482 0.15127677
-0.095228456 0.0885674 -0.05189153 -0.013098872 -0.03916277 0.04977997 0.111751504 0.20184493
0.22824416 -0.029830653 0.058530364 0.032350805 0.06465039 0.028678708 0.0022836474 0.005160232
0.044601746 0.07218133 -0.06372258 0.031598892 0.22323179 -0.30681422 0.04763359 -0.088863894
0.15348634 0.14939551 0.089140944 -0.098245665 0.1770258 -0.11663101 -0.16721024 0.046575263
-0.038071793 -0.0031153222 -0.10332685 0.10596095 -0.016654149 0.16436514 -0.022730544 0.21382673
-0.017905254 -0.027729038 0.028506044 0.1980729 0.15038285 0.21932676 0.12644678 0.066039756
0.13452159 -0.0689974 -0.040771656 -0.29513484 -0.064489394 -0.15480894 0.05579966 -0.09852832
0.08326724 -0.05023703 -0.08079863 -0.10291649 0.0577968 0.12509944 0.2093493 0.0429881
0.09993291 -0.023405585 0.015187421 -0.1051413 -0.01915189 0.15285467 -0.09803915 0.036968857
-0.12833261 0.14618653 0.024492288 0.1162756 0.22566192 0.17834951 0.05897982 0.13744321
-0.12799276 -0.18010715 -0.0941911 -0.2074426 0.11170841 -0.003859468 -0.02587162 -0.026589224
-0.21889289 0.06648319 0.10419805 0.1064059 0.1619032 -0.09160212 0.22223935 0.24631973
-0.06341761 -0.079518504 0.10520412 -0.18522581 0.13888516 0.22329499 0.23551083 0.06765896
0.12537885 -0.07328739 -0.11005664 -0.17324217 0.12358793 0.121136144 0.040438883 0.05777938
0.21582945 -0.05071555 0.023152206 -0.017510682 0.035031836 -0.039865803 -0.019271953 0.07882771
-0.08907192 0.23290303 0.080804706 -0.05617259 -0.039419316 0.13742775 0.088784255 -0.103008986
-0.21004994 -0.09626745 0.1107638 -0.079898916 0.076747306 -0.19776842 -0.05202036 0.09728028
-0.04146377 0.04590697 -0.06332304 0.03931171 -0.06911118 0.22663747 0.18889862 -0.015194379
0.1401591 0.10969865 -0.075483926 0.1968168 0.24258965 0.22529183 -0.17720854 0.10320854
0.084798805 0.10098669 0.12569639 0.11608973 0.12366524 0.011820027 -0.101773635 -0.016430706
0.17213911 0.1372954 0.006334882 0.09034971 0.17379877 0.1877904 0.106718205 0.100958854
0.24410647 -0.123872995 -0.049580693 -0.11848312 -0.19956306 -0.11171476 -0.107769184 0.24210209
0.14960843 0.10982764 0.1949846 0.14509769 0.13519596 0.015735738 0.19111669 0.005055218
0.06908581 -0.09060148 -0.017645352 0.107159205 0.136521 0.035866365 0.035120886 -0.03432103
00000000: e852 dbbd 3c2f 49bd 683b 95bc 8ca4 da3d
00000010: 3b68 323e 66b3 43be 19c4 053e 65af 763e
00000020: 36bd 9f3b 8d41 cebd a3f9 5f3a df11 053e
00000030: 5c23 f93c 7494 34bc 8f7a 1e3e e789 2c3e
00000040: 12e2 443e 6773 293e 94d5 b53d c05e 203e
00000050: c4aa 523e cb5d bcbd 3e09 e43d 29e8 7ebd
00000060: e1e9 f6bd da5e 7dbe 46ca 97bc f2eb d93c
00000070: 6541 593e 877c 873e 2e88 013e 5e33 cc3d
00000080: 449d 063e 6db2 58bc d1c2 493d 1876 46bd
00000090: 9828 523d bc14 8e3c 19e6 173e 8b70 ccbd
000000a0: e8b7 1e3e 01cb debc f500 3bbd 0148 d9bd
000000b0: f676 ef3d d0a7 3b3e 5f19 953d 7fcd b3bb
000000c0: cda4 883d 102e 3c3e 1430 6e3e 0a7d 063e
000000d0: 8342 ec3b 3c72 00be 3bf0 89bd 7a2e ebbc
000000e0: 7189 0e3d b443 48be 7b6f 593e d446 2a3e
000000f0: 97ee 713d cd3c 7cbc c933 813e 4ce8 1a3e
00000100: 2307 c3bd d362 b53d 378c 54bd a79c 56bc
00000110: 2469 20bd 15e6 4b3d f9dd e43d 70b0 4e3e
00000120: d6b8 693e 6a5f f4bc 89bd 6f3d 4782 043d
00000130: 6c67 843d 9cef ea3c 3fa9 153b 2a17 a93b
00000140: 52b0 363d ced3 933d fc80 82bd d76d 013d
00000150: e096 643e c116 9dbe 701b 433d 46fe b5bd
00000160: 862b 1d3e 23fb 183e 878f b63d 0635 c9bd
00000170: 4046 353e 3ddc eebd 2939 2bbe b4c5 3e3d
00000180: 2bf1 1bbd 6f2a 4cbb 079d d3bd 0e02 d93d
00000190: 486e 88bc 564f 283e 6835 babc 65f5 5a3e
000001a0: 0aae 92bc 0228 e3bc 8285 e93c 9fd3 4a3e
000001b0: f6fd 193e 3297 603e 447b 013e da3f 873d
000001c0: 07c0 093e 824e 8dbd 2e00 27bd ea1b 97be
000001d0: 0413 84bd 3c86 1ebe 2f8e 643d 37c9 c9bd
000001e0: 0488 aa3d 58c5 4dbd c179 a5bd e1c5 d2bd
000001f0: 56bc 6c3d 111a 003e aa5f 563e 4a14 303d
00000200: a0a9 cc3d 12bd bfbc a9d4 783c 5254 d7bd
00000210: 6de4 9cbc ef85 1c3e c0c8 c8bd a86c 173d
00000220: a069 03be ecb1 153e 0da4 c83c e721 ee3d
00000230: eb13 673e 41a1 363e d394 713d eabd 0c3e
00000240: 8910 03be 026e 38be 43e7 c0bd d56b 54be
00000250: 61c7 e43d 21ef 7cbb b8f0 d3bc a5d1 d9bc
00000260: 7525 60be 5728 883d ca65 d53d 56eb d93d
00000270: f4c9 253e e499 bbbd b692 633e 3d3b 7c3e
00000280: 18e1 81bd 99da a2bd 4275 d73d d6ab 3dbe
00000290: e937 0e3e 71a7 643e c029 713e c890 8a3d
000002a0: 5063 003e b317 96bd 6065 e1bd 6566 31be
000002b0: ab1b fd3d 3a16 f83d 3ea3 253d 12aa 6c3d
000002c0: 6502 5d3e 1cbb 4fbd b2a9 bd3c 9072 8fbc
000002d0: 8b7d 0f3d 534a 23bd 37e0 9dbc 6c70 a13d
000002e0: 576b b6bd 227e 6e3e f07c a53d 3b15 66bd
000002f0: 2676 21bd dcb9 0c3e 85d4 b53d 60f6 d2bd
00000300: 5517 57be de27 c5bd 22d8 e23d 0ba2 a3bd
00000310: b12d 9d3d ce83 4abe 4d13 55bd e23a c73d
00000320: ead5 29bd f208 3c3d 83af 81bd 5105 213d
00000330: 2a8a 8dbd a713 683e a46e 413e d8f1 78bc
00000340: de85 0f3e b0a9 e03d 5197 9abd 588a 493e
00000350: 6c69 783e e7b2 663e 2876 35be 005f d33d
00000360: ffaa ad3d 1cd2 ce3d 8eb6 003e 74c0 ed3d
00000370: 3444 fd3d c9a8 413c b26e d0bd b099 86bc
00000380: 3c45 303e 2a97 0c3e d894 cf3b 4509 b93d
00000390: 4ef8 313e 204c 403e 138f da3d 84c3 ce3d
000003a0: 0cf7 793e 20b1 fdbd 2015 4bbd 47a7 f2bd
000003b0: 425a 4cbe b5ca e4bd 17b6 dcbd 9ce9 773e
000003c0: f432 193e 50ed e03d 0baa 473e 7d94 143e
000003d0: cf70 0a3e 3ce8 803c 18b4 433e 3ea6 a53b
000003e0: dc7c 8d3d 458d b9bd fc8c 90bc 4976 db3d
000003f0: 29cc 0b3e 9ce8 123d ebda 0f3d 3594 0cbd

linear2.bias f4 [30]
0.08269766 0.05886851 -0.10902054 0.16329783 -0.077397905 0.10308337 0.11514087 0.05099701
-0.059385777 -0.13664888 -0.10526312 -0.043026477 0.093439385 0.08382313 0.10121349 0.05943027
0.11070154 -0.0046878476 0.060276445 -0.014164316 -0.012734118 -0.048399623 0.02342319 -0.055435788
0.07365664 0.0053200936 -0.01871874 0.11628954 0.100550614 0.102463864
00000000: 645d a93d 1b20 713d 2946 dfbd 8c37 273e
00000010: cb82 9ebd 601d d33d face eb3d 3ee2 503d
00000020: 803e 73bd afed 0bbe 3194 d7bd 883c 30bd
00000030: 265d bf3d 76ab ab3d 0549 cf3d 286d 733d
00000040: 7db7 e23d 849c 99bb 6fe4 763d 7211 68bc
00000050: c3a2 50bc af3e 46bd fde1 bf3c a310 63bd
00000060: 4bd9 963d 2e54 ae3b 0b58 99bc 3629 ee3d
00000070: 7bed cd3d 93d8 d13d

linear3.weight f4 [1, 30]
-0.062412925 -0.056288447 -0.06012927 -0.053582415 -0.05684511 0.079557 0.046390694 -0.06437989
-0.057397284 4.924042e-05 -0.061965145 0.08526016 -0.07064391 -0.067631125 -0.07427219 -0.00081301574
-0.04832511 -0.034763508 -0.04144984 -0.08986514 0.10028413 -0.06135653 0.059335504 0.00050278776
-0.042696185 -0.06312291 0.09333846 -0.04186254 0.058422863 -0.056369275
00000000: b2a4 7fbd b78e 66bd 1c4a 76bd 3c79 5bbd
00000010: 6bd6 68bd c8ee a23d 2b04 3e3d 9bd9 83bd
00000020: 6a19 6bbd 8087 4e38 2acf 7dbd e19c ae3d
00000030: c1ad 90bd 3082 8abd 051c 98bd 9020 55ba
00000040: 8df0 45bd 2e64 0ebd 4fc7 29bd 370b b8bd
00000050: c461 cd3d fc50 7bbd c909 733d 84cd 033a
00000060: 32e2 2ebd 9646 81bd 3c28 bf3d 0e78 2bbd
00000070: d04c 6f3d 78e3 66bd
