codes/DDPG/saved_model/20210726-004257/checkpoint.pt (torch_old, 5373 bytes, 5 tensors)

linear1.weight f4 [30, 3]
000000 85 b6 cb 3e db 84 26 3e 7d f8 19 bf 5c 4e f6 be
       0.3978769 0.16261618 -0.6014479 -0.48106658
000010 04 9f 7a bd 25 9e ce 3e 29 a8 2f 3e c7 3f 01 bf
       -0.061186805 0.4035503 0.17153992 -0.5048794
000020 b9 c4 cf 3e f3 08 0f bf 3d c6 24 3f ab 4f b1 3e
       0.40579775 -0.5587303 0.6436499 0.34631094
000030 f4 e0 68 3f e6 b2 73 3f 4c f6 21 3f 9e 23 2b 3f
       0.9096825 0.9519485 0.63266444 0.6685122
000040 9f 4d d6 be fb 00 e8 be e9 7c 4d be 36 b4 91 3f
       -0.41856095 -0.45313248 -0.2006718 1.1383121
000050 6c c9 63 3e 5f ca 59 3e 6f 64 d8 3e 57 07 f5 be
       0.22244805 0.21268605 0.42264125 -0.47857162
000060 ea 6f 57 3f 13 6e 3e 3f 7a 8d 92 3e da 49 46 3f
       0.8415514 0.7438671 0.28623563 0.7745644
000070 85 4a 8d bf 12 9e 42 be 74 98 32 3e c3 48 24 bf
       -1.1038367 -0.19005612 0.17440969 -0.64173526
000080 8e 07 f4 be f2 b2 45 3f ca 3d 20 3e 09 e2 21 3f
       -0.47662014 0.77226174 0.1564857 0.6323553
000090 d3 00 65 bf e1 2c 6d be f6 3b 1f bf 8f 55 45 3f
       -0.8945438 -0.23161651 -0.6220087 0.7708368
0000a0 5d 4e 5a bf 74 af 5c bd 49 33 bd 3e c2 ae 0d be
       -0.8527582 -0.053878263 0.3695319 -0.13836196
0000b0 4c 19 a4 3e 8e 8d 36 bf a6 4a a5 3f 7e 0b 94 bc
       0.3205055 -0.71309745 1.2913406 -0.018071886
0000c0 62 b9 40 bf ff a6 0f be 65 7a a9 be e2 ea 8f bd
       -0.7528287 -0.14028548 -0.33101192 -0.07027222
0000d0 b1 6b 05 be 12 f5 11 3f 59 05 32 3f 62 43 11 bf
       -0.13029362 0.5701457 0.6953941 -0.56743443
0000e0 57 93 f1 be f4 8b ea be c5 12 8c bf 4f e7 f8 3c
       -0.47182724 -0.458099 -1.0943228 0.030383734
0000f0 cc 72 a6 be 17 f5 eb 3e cf 53 12 3f 94 57 3b bd
       -0.32509458 0.46085426 0.5715913 -0.045737818
000100 66 7b 2c 3e 13 34 2c be 23 08 da be 57 1f b3 3e
       0.16843948 -0.1681674 -0.42584333 0.34984848
000110 73 93 c8 be ae 68 bb be 53 89 c2 bd b1 32 19 3f
       -0.39174995 -0.36603302 -0.09498849 0.59842974
000120 4c 6a 2f 3e 4c 69 22 3e 00 f3 b9 bb 66 d1 65 bd
       0.17130393 0.1586048 -0.00567472 -0.0561079
000130 45 25 81 bd 8f 4f 18 bf 15 03 6a be 5b 9b 59 3e
       -0.06305937 -0.59496397 -0.22852738 0.2125067
000140 35 6c 3c 3e a6 36 24 3e b2 42 1b be 38 9d e9 3d
       0.18400653 0.16036472 -0.15162161 0.1140694
000150 b3 a9 e0 3e e5 67 86 3f c1 3f aa 3d 26 1a a9 3e
       0.4387947 1.0500456 0.08312941 0.33027762
000160 f5 ea 3b bf 23 76 33 be
       -0.7340539 -0.17525534

linear1.bias f4 [30]
000000 25 54 2a bf 09 db 8c bd 23 c6 0b 3f e1 ac 8a 3e
       -0.66534644 -0.06877715 0.5459921 0.2708502
000010 40 aa 9e be da b8 a0 be 61 d4 18 3f 90 29 3b 3e
       -0.30989265 -0.3139103 0.59699064 0.18277574
000020 13 eb 9f be 67 94 7f 3e b3 46 41 3e ca fb 07 bf
       -0.31234035 0.24958955 0.18874626 -0.53118575
000030 13 63 07 3f e2 f5 84 3e 51 a7 06 bf 99 2a 81 bb
       0.5288555 0.25968844 -0.52599055 -0.0039418456
000040 79 fc aa 3e 2b 83 42 bf aa a1 03 bf e7 45 26 be
       0.33395746 -0.75981396 -0.51418555 -0.16237603
000050 37 15 b9 3e c6 08 3c 3f 78 00 45 3f f0 e8 b4 3e
       0.36148998 0.7345089 0.7695384 0.35333967
000060 d0 b2 ba be 59 0d 1c 3f 56 29 53 3c c6 88 41 3f
       -0.36464548 0.60957867 0.012888273 0.75599325
000070 2a 6f c5 3e 92 ad ec 3e
       0.38561374 0.46226174

linear2.weight f4 [30, 30]
000000 5b 76 7c 3e d5 32 80 3e c7 8e 49 3e a3 0b f6 3c
       0.24654524 0.25038782 0.19683371 0.030034846
000010 f2 8d 87 be 19 fc 13 3e 2c df c3 bd 62 5e 00 3e
       -0.26475483 0.14451636 -0.09564051 0.12536004
000020 ea a8 be be 5c 38 3f 3d c3 c8 1a bd 55 78 e9 bd
       -0.37238246 0.046684608 -0.037789118 -0.11399905
000030 ad 36 60 3d e5 37 be 3e a1 94 82 be 19 44 1c 3f
       0.054739643 0.3715202 -0.2550402 0.6104141
000040 9c a4 26 bd 54 aa e4 ba 5c 14 b1 3e 55 75 85 be
       -0.040684327 -0.0017445781 0.34585845 -0.2606608
000050 3b 54 1a 3e f5 6e ff bd de 60 86 bd ea df c8 3d
       0.15071194 -0.12472335 -0.06561445 0.09808333
000060 cc 1a 0c 3d ce 7e f2 3d 0f f0 81 3e 24 8a 1a 3e
       0.034205243 0.11840592 0.25378463 0.15091759
000070 00 06 f4 3c e4 17 7c 3e 1e ba 83 3e 85 55 ab 3e
       0.029788017 0.24618489 0.25727934 0.33463684
000080 e2 f0 47 3e 52 5c 51 3e a7 17 65 be 00 5e 9a 3e
       0.19525483 0.20445374 -0.22372304 0.3014984
000090 07 6a 37 be f8 64 fc bd a0 dd 18 bf fa 0d 5b 3e
       -0.1791154 -0.12323946 -0.5971317 0.2139205
0000a0 d5 30 73 bd cd a4 64 bd 3f ff a5 bd 69 18 b0 3e
       -0.05937274 -0.05582123 -0.08105325 0.34393623
0000b0 f7 38 19 be 30 95 8f 3e b5 db a8 b9 7e e3 3e be
       -0.14963137 0.2804351 -0.00032207152 -0.18641469
0000c0 34 ba 9c 3e 68 bd ee be cb 49 6b bd aa 5b 8b bd
       0.30610812 -0.4662888 -0.05744342 -0.06804593
0000d0 70 60 6c be 53 b1 3e 3d 64 79 9f bd 5b 3e 6d bd
       -0.23083663 0.04655583 -0.07786825 -0.057920795
0000e0 40 85 cc 3e 79 a2 c5 3e a3 02 fb 3b 2d 29 8a 3e
       0.39945412 0.3860052 0.0076602264 0.2698454
0000f0 d5 df ce 3c fe 47 05 3d 84 53 19 be 96 6f 1e 3e
       0.025253216 0.03253936 -0.14973265 0.15472254
000100 d2 16 0a 3f eb 7a 11 bd 37 ba b6 3d f6 bf 74 3d
       0.5394107 -0.035517614 0.089222364 0.05975338
000110 cc 91 35 3f b2 e1 b8 bd 0d 30 da 3d 6c 0a fe 3d
       0.70925593 -0.09027423 0.10653696 0.124043316
000120 35 5c aa 3e 43 de a9 be 57 33 a3 3e bd 04 07 bf
       0.33273473 -0.33177385 0.31875107 -0.52741605
000130 ac 59 63 3e f0 c2 88 3e c8 72 00 bf 17 e1 a3 3e
       0.22202176 0.26711226 -0.5017514 0.32007667
000140 b0 1f 36 3d e8 d7 8f 3e 66 6e 2e 3e 2a d6 43 be
       0.044463813 0.2809441 0.17034301 -0.19124666
000150 78 aa 98 bc a8 40 8d 3d 37 8a de be e3 05 63 bb
       -0.018635973 0.06897098 -0.43464825 -0.003464096
000160 1e c2 d8 3e ed ff bc 3d 95 98 44 3b f5 06 fc bd
       0.423356 0.092285015 0.0029998173 -0.123060144
000170 a2 52 2a 3d 7d 26 49 be 39 d5 6f 3e 1c 67 50 be
       0.04158271 -0.19643588 0.23421182 -0.20351833
000180 9f 30 9d 3e 8a 39 e8 bc 58 95 e7 3e 0a 1c f8 bd
       0.30701157 -0.02834775 0.45231128 -0.12114723
000190 75 b4 5a 3b 3e 68 82 3e 02 d4 1a 3e 7b dd 88 be
       0.003337172 0.25470155 0.15119937 -0.26731476
0001a0 44 34 87 3d 0c b6 08 bf 91 89 02 3e cd 89 3a 3d
       0.06601766 -0.5340278 0.1274779 0.045541573
0001b0 d7 90 d7 be 39 36 11 3f f2 f3 ec 3d 7b 14 00 3f
       -0.42102692 0.5672336 0.115699664 0.5003125
0001c0 d2 d4 95 3e 0e 50 6f 3d 7d 2b e2 bd e2 b5 91 3e
       0.29263932 0.058425955 -0.11043451 0.28459078
0001d0 5d 7f bb be 5f 6b 3d 3d 0e 13 5a 3e ba bd 3d be
       -0.36620608 0.046244975 0.21296331 -0.18529406
0001e0 6c 22 9c 3e 51 07 30 3e 5e 4c 5f 3e e4 09 63 3e
       0.30495012 0.17190291 0.21806476 0.22171742
0001f0 f2 78 13 be c1 d0 a8 3e b6 c3 d3 bd 38 1a 96 3b
       -0.14401606 0.32971767 -0.10340063 0.0045807622
000200 3b f4 19 bf 67 65 9a 3e b8 d7 b0 bd ff bf 38 bd
       -0.6013829 0.3015549 -0.08634895 -0.045104977
000210 95 4b f2 bc 76 be 7b 3e 2f 6e 89 be bb d6 f3 3e
       -0.029577056 0.24584374 -0.26841876 0.47624764
000220 50 01 73 be 83 ac 4f be fa 00 e0 3e eb eb 67 be
       -0.2373097 -0.20280652 0.43750745 -0.2264859
000230 1f c7 42 3e 26 fd fa bd 52 cd 07 be 4d 6f 09 3e
       0.19021271 -0.122553155 -0.13261917 0.13421364
000240 3e 52 84 bd b9 7b b1 bd 5f 38 9c 3e f2 94 c1 3e
       -0.06460999 -0.08666176 0.30511758 0.3780895
000250 d5 5a 28 be 10 0c 9b 3e e5 c7 8e 3c ba 45 86 3e
       -0.164409 0.3028264 0.017429302 0.26225072
000260 4e 6c a3 3e b4 24 47 3e e2 7b 61 be 49 83 b9 3d
       0.31918567 0.19447595 -0.22019914 0.09058244
000270 85 10 f4 bd ee e2 16 3e 35 68 0c bf f4 7c ee 3d
       -0.11917213 0.14735004 -0.5484651 0.11644927
000280 5d ef 02 3e 44 c4 7d be 17 ce 32 bd b0 a9 bc 3e
       0.12786622 -0.247819 -0.043653574 0.3684821
000290 57 39 df bd 53 f5 88 3e 13 fd 15 be d2 f4 fa bc
       -0.108996086 0.26749668 -0.14647321 -0.030634318
0002a0 c2 dc c5 3e 3d 5b bf be ba d7 3f 3e 3c 5a d9 bd
       0.38644987 -0.37374297 0.18734637 -0.10612914
0002b0 ce 4a d0 bd c9 3e 95 3e 40 a7 10 3c 4a b4 0c be
       -0.10170518 0.29149464 0.008828938 -0.1374065
0002c0 e2 a3 8d 3e 22 f8 56 3e 7b f0 31 be c1 1e 85 3d
       0.27664095 0.20993093 -0.17376892 0.065000065
0002d0 d8 be 21 be 6e 75 93 bd f4 df af bd 2b f6 76 bd
       -0.15795457 -0.07200132 -0.085876375 -0.060293358
0002e0 6e c2 fb 3e 72 07 97 3d 8b 12 c1 3e 36 32 6a 3d
       0.49171776 0.07374467 0.3770946 0.05717679
0002f0 40 5d 04 3f 3b 98 9b be df fe 87 3b d5 4b 94 3d
       0.5170479 -0.3038958 0.004150256 0.07241026
000300 34 bc 09 3e a3 d7 ab be f6 9f 97 3e cb a3 12 bf
       0.134507 -0.33562955 0.29614228 -0.5728118
000310 da dc d9 3e 1a 1b 0f 3e b6 f0 8e be 67 4a e3 3e
       0.4255131 0.13975182 -0.27918023 0.44392702
000320 1a 65 28 3e c3 54 b5 3e 83 d8 c1 3e 68 77 f5 3c
       0.16444817 0.3541623 0.37860498 0.029964164
000330 44 bc 1e 3e 56 24 6b 3e 94 7a 30 be 83 2d 57 be
       0.15501505 0.2296308 -0.1723426 -0.21013455
000340 46 8b a4 3e 6f 44 10 be eb 2e 7a bd d0 6a a0 bd
       0.32137507 -0.14088605 -0.0610799 -0.07832873
000350 99 ba 23 be 94 39 e0 bd e0 a2 63 3e 25 d1 98 be
       -0.1598915 -0.10948482 0.222301 -0.29847065
000360 bc 93 91 3e 2b 96 c3 bd 9a ca c3 3e c3 d6 0e bd
       0.28433025 -0.09550127 0.3824051 -0.03487278
000370 0b f0 94 bd 81 05 9e 3e e9 1a 1b 3e 7b f2 ec bd
       -0.07272347 0.30863574 0.15146984 -0.11569687
000380 94 04 94 3e 0e d7 a8 be e0 68 6f 3e 9d 67 73 3e
       0.28909743 -0.32976574 0.2337985 0.23769994
000390 87 f4 61 be f3 42 00 3f 4d 90 06 be 70 20 3a 3e
       -0.22065936 0.50102156 -0.13140984 0.18176436
0003a0 de 41 92 3e 32 cb a9 bd 58 a1 dc 3c 79 29 63 3b
       0.28565878 -0.082907096 0.026932403 0.003466217
0003b0 88 d8 94 bd 22 fc ed bd 24 23 88 3d 06 76 35 3e
       -0.072678626 -0.11620356 0.066473275 0.17720804
0003c0 78 e7 95 bd 56 bc 30 be 12 d4 89 bd 48 59 9b 3c
       -0.0731954 -0.17259344 -0.06729902 0.018963471
0003d0 da 2c e0 3e 90 2d 17 bb e1 d8 56 3e 85 03 a2 3e
       0.4378422 -0.002306793 0.2098117 0.3164331
0003e0 4b d6 46 3f 49 da a1 bc 17 cd 0e bd a4 c4 1e 3e
       0.77670735 -0.019757407 -0.034863558 0.155047
0003f0 54 d4 81 3e 3a 0c 3d be d1 90 c8 3e 05 f8 11 bf
       0.25357306 -0.18461695 0.39172986 -0.5701907

linear2.bias f4 [30]
000000 e3 41 98 be 24 88 18 3d 1f 34 9e 3e e0 09 e2 3e
       -0.29737768 0.03723921 0.3089914 0.4414816
000010 20 e2 6e be aa 1a c2 ba 2b e6 f6 3e 02 6a 31 3e
       -0.23328447 -0.0014808972 0.4822248 0.17325595
000020 3d ec b1 3e 40 80 5d be 12 a6 cc bd 62 3f c1 3e
       0.34750548 -0.21630955 -0.09992613 0.3774367
000030 80 cd 5d 3e 1c 18 11 be cf 44 97 3c ef c3 05 be
       0.21660423 -0.14169353 0.018465428 -0.13063024
000040 f2 17 5a bc 01 99 59 3d cd 62 a3 bd 80 d4 b3 3e
       -0.013311373 0.05312443 -0.07977829 0.35123062
000050 9d ce e4 3e 50 d6 35 be 50 7b 5c be 22 fb d1 be
       0.44688883 -0.17757535 -0.21531415 -0.41011912
000060 d6 a5 12 3d c2 52 da bb 37 a3 33 be c4 dd 31 be
       0.035802685 -0.0066626975 -0.1754273 -0.17369753
000070 cb 4c 0a be 35 25 35 3b
       -0.13505857 0.0027640585

linear3.weight f4 [1, 30]
000000 d2 c6 6f 3e 6f e2 ea 3e fe 53 de be ba 11 cd be
       0.23415688 0.4587588 -0.43423456 -0.40052587
000010 78 bc 03 3f c9 ae c0 3e 14 d8 c6 be d1 03 fc be
       0.51459455 0.3763335 -0.3883673 -0.49221662
000020 b8 8f e2 be 4e c9 44 3f 88 86 aa 3e 2b c4 a5 be
       -0.44250274 0.76869667 0.33305764 -0.32376227
000030 7d 3d bd be 74 95 0a 3f 5d 4a 0d 3f 18 39 35 3f
       -0.36960974 0.541343 0.55191594 0.70790243
000040 26 42 36 3f 47 2b d6 3e d8 ae ab 3e 5c e9 a7 be
       0.71194685 0.41829893 0.33531833 -0.32795227
000050 df a8 d7 be 63 d6 df 3e 48 74 be 3e 63 2f a5 3e
       -0.42121026 0.43718252 0.3719809 0.32262716
000060 d8 01 30 3f 0b 64 8a 3e 74 a2 de 3a a6 a9 9f 3e
       0.68752813 0.27029452 0.0016985671 0.3118412
000070 fb d6 f7 3e 4e a2 ec 3e
       0.48406205 0.4621758
