codes/DDPG/saved_model/20210726-171052/checkpoint.pt (torch_old, 5373 bytes, 5 tensors)

linear1.weight f4 [30, 3]
000000 20 92 df be b9 5c 87 be a5 83 81 3d 7d 73 ff 3e
       -0.43666172 -0.2643793 0.06323937 0.49892798
000010 98 54 9f 3e a9 97 f5 bd d7 b3 b2 be 06 e3 f9 3d
       0.31119227 -0.119918175 -0.34902832 0.122015044
000020 1b 1e ba be 3b fe b0 be 5f 4d 00 bf 9e 07 8b 3a
       -0.36351094 -0.34568962 -0.5011806 0.0010607128
000030 0f 55 c8 bd 83 19 7a be 33 c7 3a bd 41 2f 21 3d
       -0.09781849 -0.24423794 -0.045600127 0.039351705
000040 89 50 df bd a5 77 07 bf d5 d5 18 be c9 45 39 bf
       -0.10904033 -0.5291694 -0.1492532 -0.7237211
000050 ad 5a 8e be 9b 39 ba 3e e4 ad 96 3e f1 10 c7 be
       -0.27803555 0.36372074 0.29429543 -0.38880113
000060 cf 2b 8a 3e 52 c4 0b 3f 3d 9b c8 bd 95 af 6b be
       0.26986548 0.54596436 -0.09795234 -0.23016198
000070 d1 1b 4a bd 48 c4 19 3e d1 2b 4b bd 42 70 f2 3c
       -0.049342934 0.15016282 -0.049602333 0.029594544
000080 1b 2d 4d 3e c6 4e bd bd 33 8c c9 3e 9d 25 f8 be
       0.20036738 -0.092435405 0.39364776 -0.48466197
000090 61 06 40 be 28 6d eb be 9f c6 04 bf 6c 03 dd 3e
       -0.18752433 -0.45981717 -0.5186557 0.43166673
0000a0 71 d1 cd 3e cd 94 15 bf d9 49 1e 3e 05 fb 1e 3f
       0.40198854 -0.58430177 0.15457858 0.62101775
0000b0 70 02 97 be 03 af 00 bf 33 3f 95 be 98 9a b9 be
       -0.29494047 -0.50267047 -0.2914978 -0.36250758
0000c0 37 b3 87 be c0 8b c7 be f0 7b 58 be 1b 51 3d be
       -0.26503918 -0.38973808 -0.21141028 -0.1848797
0000d0 d9 b6 d2 be 2b 6d 80 bd 96 45 c7 3d ba 7a d8 bd
       -0.41155127 -0.06270822 0.09730069 -0.10570283
0000e0 43 3b 05 bf 58 01 07 bf 42 c8 dc be 03 af 70 3d
       -0.5204355 -0.52736425 -0.43121535 0.058760654
0000f0 59 12 ad be 81 92 0a bf b2 66 ad be cc 25 ae 3e
       -0.3380306 -0.541298 -0.33867413 0.34013212
000100 84 da ba be 5b 8d 17 bf 74 3c ff bd 77 c3 df be
       -0.3649484 -0.59200066 -0.124627024 -0.43703815
000110 72 78 ae be e6 e1 20 be 45 90 15 be 87 2b 28 3f
       -0.34076267 -0.15711173 -0.14605816 0.6569142
000120 a1 39 ff 3c 13 f0 19 3f 19 4c 17 3f 58 b0 e2 3e
       0.03115541 0.6013195 0.5910049 0.44275165
000130 8c e3 35 3e 7a c2 f6 3e b0 b0 b9 3c 9b 5f ad be
       0.17762583 0.4819525 0.022667259 -0.33862004
000140 0b 00 aa be bb 48 e0 bd 77 4b 00 bf 29 99 20 3e
       -0.33203158 -0.10951372 -0.5011515 0.15683426
000150 19 41 08 be 35 e2 8e 3e be 63 6d bd 73 99 e4 be
       -0.13306083 0.27906957 -0.05795645 -0.44648322
000160 89 14 86 3e ef 24 6a be
       0.26187542 -0.22865652

linear1.bias f4 [30]
000000 d3 24 3e 3e 7b db d2 be 1e 33 09 be 0f 97 16 3e
       0.18568735 -0.41183075 -0.13398406 0.14706062
000010 f2 d3 91 be 1b 71 be 3e a7 7a ef 3e fc 15 26 3f
       -0.28482014 0.37195668 0.46773264 0.64877295
000020 44 fb 56 bd f3 36 fd be 15 36 f7 be 35 9d d2 3e
       -0.05248572 -0.49455985 -0.4828345 0.41135564
000030 a5 9b b4 bd 77 4d 0c 3f b3 ac 45 3e f0 0e 1c be
       -0.08818749 0.548057 0.19304161 -0.15240073
000040 b5 09 e6 bd 2b 57 ef be 6a 6f 9a 3e b8 39 aa be
       -0.1123232 -0.4674619 0.30163127 -0.3324716
000050 a0 37 1e 3f 81 12 de bd 5b ec 00 bf 0a 6a f5 3d
       0.61803627 -0.10843373 -0.5036065 0.11983116
000060 0c e3 2b 3f 6d c0 dd be 0f dd ab 3c 3c 78 44 be
       0.6714332 -0.43310872 0.020979432 -0.19186491
000070 ec 36 56 3d 28 44 49 be
       0.05229847 -0.19654906

linear2.weight f4 [30, 30]
000000 70 c7 d3 bd c8 d6 d6 bc aa b1 af bd ae 74 7c bd
       -0.10340774 -0.026225463 -0.085788086 -0.061634712
000010 50 e2 2b 3d e0 06 79 bc 74 bb a1 bd 4d 6d e7 bd
       0.041963875 -0.015199393 -0.07897082 -0.11300144
000020 c0 52 24 3d b6 fa 1c be d6 62 35 3e 30 2d a8 3c
       0.04011798 -0.15330014 0.17713484 0.02052936
000030 60 93 2d 3e 78 66 e5 bd 10 dc d2 3d 00 72 81 39
       0.1695075 -0.11201185 0.1029588 0.00024689734
000040 00 3c 6e 39 f5 b9 e3 bd 8a ff 07 3e 2f 24 da bd
       0.000227198 -0.11119453 0.13281074 -0.10651433
000050 4c fe 22 3d 5e 74 2e be 39 0c 8a bd c7 4d b1 bd
       0.039793298 -0.17036578 -0.067406125 -0.08657413
000060 db a9 bc bd 1a eb d8 bd af 20 10 be 30 22 f9 bc
       -0.09212085 -0.10591717 -0.14074968 -0.03041181
000070 04 50 67 3d c0 6e cf 3d 0c 28 4b bc 9a a0 42 bd
       0.056472793 0.10128546 -0.012399685 -0.047516443
000080 b1 0a a2 bc 18 93 8e bc 65 35 61 3c 9d 52 27 3e
       -0.019780489 -0.017404124 0.01374564 0.16340108
000090 67 4f 56 3d 01 8d f9 3b 71 92 bf bd 3a cd 09 bd
       0.052321818 0.007615686 -0.09354103 -0.033642985
0000a0 cf fb 17 3e 15 e6 cb bc fc a0 53 bb 2f 14 cb 3c
       0.14842151 -0.024889985 -0.0032292 0.024789898
0000b0 eb 82 27 bd fb ab aa 3c af 58 69 bd 58 f1 54 3d
       -0.040896337 0.02083396 -0.05696934 0.051987976
0000c0 f2 7d 17 3d 67 a0 4e 3e 81 ed 2c 3e 3a 10 12 bd
       0.036985345 0.20178376 0.16887476 -0.035660006
0000d0 a6 29 07 3e 7e 99 52 3c 09 f5 af 3d 02 2e 1d 3e
       0.13199481 0.012853978 0.085916586 0.15349582
0000e0 9c 54 1c 3e 4a 07 33 bd 52 31 f5 3d ed f5 c7 3b
       0.15266651 -0.043708123 0.11972298 0.0061023147
0000f0 5f a8 c3 bd 45 4d f9 3d 63 36 d8 3d c3 4f 1b 3b
       -0.095535986 0.12172941 0.105572484 0.0023698665
000100 1c 47 53 be 18 b3 19 be bc 48 00 be b8 ed 48 bc
       -0.20632595 -0.15009725 -0.12527746 -0.012263708
000110 db 0c e7 3d 2c 6d c0 3d cc 19 bb bc ff 90 9d bc
       0.11281749 0.09395823 -0.02283945 -0.019234179
000120 12 bc 27 3d e7 f8 35 3e 92 5b 79 bc 43 6a 64 bd
       0.040950842 0.1777073 -0.015219586 -0.0557654
000130 fe 77 b6 bd 7e c7 01 bd e9 35 67 bd e8 d0 f3 3c
       -0.089096054 -0.03168439 -0.056447897 0.0297627
000140 de b9 92 bd 4e b1 db 3d c3 d8 3e be 4e ba 04 3e
       -0.071643576 0.107271776 -0.18637376 0.12961695
000150 11 48 4d 3e e7 27 d0 3d 54 27 05 be 44 70 32 be
       0.20047022 0.10163861 -0.13003284 -0.17425638
000160 ab 09 74 3d 59 43 ed 3d 9f 8e cc bd 87 26 08 3e
       0.059579533 0.11585111 -0.0998814 0.13295947
000170 a9 6f 0e be 01 4f 0e be 94 02 36 3c c6 52 94 3d
       -0.13909782 -0.13897325 0.011109013 0.0724235
000180 f1 d3 92 bd 5b 74 0f be f9 7c 1a 3e be 3e 97 3d
       -0.07169331 -0.1400923 0.15086736 0.07385014
000190 dd e8 93 3e 49 e1 81 bd fb d2 8c bd 7f 5e 0e 3e
       0.28888598 -0.06341798 -0.06876179 0.13903235
0001a0 7e 36 a5 3c 6a e7 e6 bd 68 30 e6 bd 6c ea 36 3d
       0.020167585 -0.112746075 -0.112397015 0.044657156
0001b0 05 71 be 3d 1c 00 cf bd 32 85 de bb e6 4d 93 3d
       0.092989005 -0.10107443 -0.0067907805 0.07192592
0001c0 a1 3f 04 be 17 ab aa 3c c3 ae 8c 3e 39 a3 48 3e
       -0.12914898 0.020833535 0.27477083 0.19593515
0001d0 a6 88 35 bd c6 ad 97 bb 21 dd 07 3e 14 8c 01 be
       -0.04431977 -0.0046288697 0.13267948 -0.12651092
0001e0 84 e7 c3 bd 12 48 52 bd 57 7a a7 3c 9c 76 aa 3d
       -0.095656425 -0.051338263 0.020444078 0.08323404
0001f0 ee fd 3a 3d 62 2e 2f 3d 3b f1 e5 bd 99 30 1d bc
       0.045652322 0.042768843 -0.11227652 -0.009594106
000200 f9 52 c0 bc 12 24 5f 3e de 42 cf 3c e1 42 89 3d
       -0.023477064 0.21791103 0.02530044 0.06702209
000210 69 7d d2 3d 41 60 f7 3d de 27 0b be ba 8d c4 3d
       0.10277826 0.12078906 -0.13589427 0.09597345
000220 0d 74 06 be 40 a7 32 3e a7 93 67 3d 67 3f 83 3d
       -0.13130207 0.17446613 0.056537297 0.064085774
000230 e8 24 34 bc c8 8a 23 3e 23 da 18 be 47 80 db 3c
       -0.010995127 0.1597091 -0.14926963 0.026794566
000240 be 6c 03 3e df 5d 95 bd 59 69 0a be ff 61 2d bb
       0.1283445 -0.07293295 -0.1351675 -0.0026456115
000250 15 6b 21 be 1a 79 cc bd 6d f0 21 3d 67 38 6e 3d
       -0.15763505 -0.09984036 0.03953593 0.05815926
000260 93 73 27 3e 71 d7 ed 3c 29 58 cf 3d 39 60 fb 3d
       0.16352682 0.029033395 0.10124237 0.122742124
000270 e3 7d 1a 3e 27 00 94 bd 92 41 ee 3d 4e c8 23 be
       0.15087084 -0.072265916 0.116336 -0.15994379
000280 7c a9 34 3e d9 77 f5 3d 4a 1b 27 3d 56 24 0f be
       0.17642778 0.1198575 0.04079751 -0.13978705
000290 12 dd 06 3d 17 a3 11 3e 81 3f c2 3c 70 1d 0a 3e
       0.032925673 0.1422237 0.023711922 0.13487792
0002a0 03 fc af 3d 42 d3 f1 3d 89 04 46 bd 48 05 b5 bd
       0.08592989 0.11807872 -0.04834417 -0.08838898
0002b0 f5 71 42 3e b7 32 cd bd b0 3a 99 bd 08 13 e1 3d
       0.18988784 -0.10019439 -0.07481897 0.10989958
0002c0 49 32 84 bd d4 c4 0f bc c4 76 d9 bd 55 91 88 bd
       -0.06454904 -0.008774955 -0.10618356 -0.06668345
0002d0 ae 62 ce 3d 56 8d 17 bd a9 04 15 bc 6a 42 4b be
       0.100774154 -0.037000023 -0.009095349 -0.19849554
0002e0 e1 25 c5 3c 67 ad ab bd ac 78 73 be 5b 36 80 3d
       0.024065914 -0.08382683 -0.23776501 0.062603675
0002f0 00 f4 1d 3e 2d a4 25 3e b5 5c ba 3d c5 31 89 3e
       0.1542511 0.1617591 0.09099714 0.26795784
000300 bb a2 76 be 86 1d 81 bd fe ec 40 3e a4 85 97 3d
       -0.24085514 -0.06304459 0.18840405 0.07398537
000310 f2 2d 2b be fc c5 8f bd 5e cc fa 3c 2e 56 c7 3d
       -0.16716745 -0.070201844 0.030615028 0.09733234
000320 e8 9c 54 be 8d 99 05 3e 02 e1 fc bc 5f 80 47 3e
       -0.2076298 0.13046856 -0.03086901 0.19482563
000330 b2 17 e4 3d a9 24 a3 3c d0 f6 41 be b9 37 c9 3d
       0.11137332 0.019914942 -0.18941808 0.098250814
000340 4f 66 3b 3e 63 63 80 3d 1c 66 89 bd f9 30 72 3c
       0.18300746 0.062689565 -0.06708929 0.014782184
000350 37 15 1b 3e 14 2b 27 be 0a 52 92 bd ae 4e e4 bd
       0.15144812 -0.16325027 -0.07144554 -0.111478195
000360 0f b5 20 ba a7 91 9c bd e2 12 83 3e 66 d8 0f 3e
       -0.00061304955 -0.076449685 0.25600344 0.14047393
000370 e9 d4 50 3e b7 7f a9 bd 5f 82 1e 3e 9b c3 d4 3b
       0.20393719 -0.08276313 0.1547942 0.0064930446
000380 93 3b ce 3c 50 41 46 be 65 aa 1a 3e ae 29 7b bd
       0.025174892 -0.19360852 0.15104063 -0.061319046
000390 14 60 72 bd 31 f4 a1 3d a0 c5 14 be d5 bb 21 3e
       -0.05917366 0.07907904 -0.14528513 0.15794308
0003a0 70 6f f1 bd e6 fd 48 bc 43 ce 05 3e 31 0e 3b 3e
       -0.11788833 -0.012267565 0.13066964 0.18267132
0003b0 b1 12 d3 3d 27 c4 30 3d 23 91 7f bd f6 e9 e8 bd
       0.103062995 0.043155815 -0.062394273 -0.113727495
0003c0 95 0a 1b be 7e 4b 06 3e 3d e1 e8 bb 52 49 96 bd
       -0.15140755 0.13114735 -0.0071069286 -0.073382035
0003d0 36 48 1f be 29 16 0f 3d f9 43 18 be 2f 00 c1 bb
       -0.1555489 0.034933243 -0.1486968 -0.0058899145
0003e0 85 7c 91 3d f1 c2 a1 3d cc 21 33 3c e1 b7 c7 3d
       0.07103828 0.0789851 0.010933351 0.09751869
0003f0 5f 3b b2 bc 8b 43 ad 3c b5 b2 6d bd a0 99 4c 3d
       -0.021756826 0.021150371 -0.058031756 0.049951196

linear2.bias f4 [30]
000000 ea 72 32 be 13 8f 6a 3d 67 8e 67 3b f5 80 7d 3d
       -0.17426649 0.057265352 0.003533268 0.06189056
000010 0b 25 37 3e 4d 63 c9 bd 33 dc 6f bc a5 38 70 3d
       0.17885225 -0.09833393 -0.014639902 0.05864777
000020 0c 08 0f 3e a5 01 34 3d 0f f1 bb 3d 92 20 9b 3e
       0.13967913 0.04394688 0.09176838 0.30298287
000030 68 0d 41 bc 88 7a 99 bd 4f c7 15 bd f3 c3 03 be
       -0.011782981 -0.07494074 -0.03656703 -0.12867717
000040 6c cc 1f be 8c bc 6e bd 43 c4 a7 bd ec 6e 69 3e
       -0.15605325 -0.05828528 -0.08191731 0.2279622
000050 ad a1 95 3d b7 93 18 3e 70 8a d2 3d 6c aa 3a 3e
       0.07306228 0.14900099 0.10280311 0.18229073
000060 ee cc 23 bd 50 51 d0 3d 70 e9 80 bd b6 3a e9 bd
       -0.039990358 0.10171759 -0.06294525 -0.11388151
000070 c6 a2 6b 3d 23 7b ca bd
       0.05752828 -0.09886768

linear3.weight f4 [1, 30]
000000 68 e1 f6 3a 54 12 c4 3c da b0 a5 bd d5 04 95 bd
       0.0018835487 0.02393452 -0.080903724 -0.07276312
000010 1f cc 03 3c 33 4c fc 3c 39 63 b8 bd e8 c0 c9 bd
       0.008044272 0.030798053 -0.090033 -0.09851247
000020 94 7c ca bd 47 9e ef bd f8 70 99 bd c6 a6 11 3e
       -0.09887043 -0.11700111 -0.0749225 0.14223775
000030 e7 65 35 bd 49 57 80 bd 9b 89 93 bd ea b4 dc bb
       -0.044286635 -0.06266648 -0.072039805 -0.006735434
000040 81 2f 9e 3b 5f 66 ed ba 57 7a 3e bd 1b bf 1d bd
       0.0048274403 -0.0018112174 -0.04650339 -0.03851233
000050 2d fd 04 bd 2e ff c7 bd e2 07 01 be bc 08 39 3d
       -0.03246801 -0.097654685 -0.12600663 0.045174345
000060 45 0e c6 3c 54 57 86 bd 00 a3 cc 3c 3c 5a ae bc
       0.024176726 -0.06559625 0.024980068 -0.021283261
000070 20 6d b8 bd 0f d6 c5 bc
       -0.09005189 -0.024149923
