codes/DDPG/saved_model/20210726-203329/checkpoint.pt (torch_old, 5373 bytes, 5 tensors)

linear1.weight f4 [30, 3]
00000000: 020b 10be 13e2 98be 2166 08bf 2c4b 8abe
00000010: 81c3 ab3e f417 57bd 61b8 24be 8ec1 e33e
00000020: 3fb7 14bf 8c86 7bbd 1c6f df3e 05ea 053f
00000030: f704 c3be fa4e 29bf 0052 98be 0f08 093e
00000040: 314e 0dbf abe6 01bf 9807 abbe 1759 903e
00000050: bfab 95bd fdd8 323c b893 823e f17f 053e
00000060: 0e52 353e d0ea 553d ec01 cb3e 5662 ca3d
00000070: 5578 f23e 1866 50be 13bb eebe 5981 02bf
00000080: d819 a3be c7e9 8b3c 07a6 0e3e 8e4f dbbe
00000090: c212 3e3d e2ae 263d ee32 9abe 8276 89be
000000a0: 0de7 97be e351 993e e6b6 d43e da22 a1be
000000b0: d152 0abf 8bff fdbe 6ea1 8d3e c02d e33e
000000c0: 9a30 4a3e 7bca 5b3e 0654 cf3e 4f42 ba3d
000000d0: acb1 50bd c5ef f4be 76f1 97be ffb0 0ebf
000000e0: c786 093d 18c9 253e dbe9 e2be ea70 d0be
000000f0: 027b 76bd 13b4 b2bd 0689 1ebf 779a c0bd
00000100: 6fcc 853e c018 803e 3fb9 3e3e 8690 a0bc
00000110: 3d50 ccbe dda4 79be aa5f 73be fafd f8be
00000120: 7d45 00bf 2d1e 723e c01e b4be ecd8 a33e
00000130: 04d3 08bf 5720 5abe 966f dbbd 7346 143f
00000140: ae12 14be 985e 39be 4969 5cbd 3581 e83d
00000150: e8ae 27be 2eac 8fbd 67a1 363c bbf1 19bf
00000160: ced2 d23e 049f fc3e
-0.14066699 -0.2985998 -0.53280836 -0.27010477 0.33547595 -0.052513078 -0.1608596 0.44483608
-0.5809211 -0.06140761 0.43639457 0.5231021 -0.38089725 -0.66136134 -0.2975006 0.1338198
-0.55197436 -0.50742596 -0.3340423 0.2819297 -0.073081486 0.010915992 0.25503325 0.13037087
0.17707083 0.052225888 0.39649904 0.09882037 0.4735743 -0.20351446 -0.466271 -0.5097862
-0.31855655 0.017079247 0.13930522 -0.42834133 0.046404608 0.040694125 -0.3011698 -0.26848227
-0.29668465 0.29945287 0.4154579 -0.31471902 -0.5403262 -0.49609026 0.27662224 0.44370842
0.19745103 0.21463959 0.40493792 0.090946786 -0.05095069 -0.4783918 -0.29676408 -0.55738825
0.0335758 0.16189992 -0.44319043 -0.40711147 -0.060175903 -0.08725753 -0.6192783 -0.09404462
0.26132533 0.25018883 0.18625353 -0.019600164 -0.39904967 -0.24379297 -0.23766962 -0.4863127
-0.5010603 0.23644324 -0.3517971 0.32001436 -0.53446984 -0.21301399 -0.10714643 0.57919997
-0.1446025 -0.18102491 -0.053811345 0.11352769 -0.16375315 -0.070152625 0.01114688 -0.60134476
0.41176456 0.4934007

linear1.bias f4 [30]
00000000: 73b2 49be 5665 f6be 7bed c0be b165 193e
00000010: 3228 703d 5c23 fe3e 7093 edbe 6c65 77be
00000020: 9336 df3e 4aa8 0b3f b954 e7be 5bc1 b8be
00000030: be40 a73e ec7b e8be a7f2 c33e db9b f93e
00000040: f9d9 d93e 0e5a d33e 95de 4c3e 4183 293e
00000050: 9e45 b73e 94f9 063d 261d d83e 2607 593e
00000060: eddf 0cbf 58ed d6bd c0c8 57be da46 b93e
00000070: 711c 90be 7e3f 5dbb
-0.19696979 -0.48124188 -0.37681183 0.14980198 0.058632083 0.49636352 -0.46401548 -0.24159783
0.43596324 0.54553664 -0.45181826 -0.3608502 0.32666582 -0.45407045 0.38271067 0.4875172
0.42549112 0.41279644 0.20006783 0.16553976 0.357953 0.03295286 0.42209738 0.21194133
-0.55029184 -0.104944885 -0.21072674 0.36186868 -0.281467 -0.0033759768

linear2.weight f4 [30, 30]
00000000: 6f5a e53d 4c91 23be 7850 013d 4655 c0bc
00000010: d4d4 803e b00e a3bd 5855 bebb e306 9f3c
00000020: c2f2 6ebc 8d80 2cbe 7634 773e 91cb 673d
00000030: c9a0 123e e9cd 46be ea48 163e bdd5 003c
00000040: ba00 c63d 0380 9c3d 5d15 c8bd fe50 423e
00000050: dfbf 383e d082 e23d 1245 95bc 14d9 6b3c
00000060: f16e 093e e0b6 df3d 0720 a9bd da48 bfbd
00000070: b37b 14be eb84 5d3b 9fab 623d e9e1 a5bd
00000080: c3aa d9bd dbbd f3bd 24ab 4c3d 7b78 5c3e
00000090: 0ed1 3a3e b5d7 eb3c 9442 013e 2d14 e0bd
000000a0: b148 6c3e 5e19 e6bc c62f d43c 81cf 3dbe
000000b0: 7eac b7bc 4dbd 45be 5eac bc3d 99e1 593e
000000c0: 1b9b 3e3e 2381 863e 7a72 223e 9c7b 103e
000000d0: 9507 03be 9c27 d9bd bf66 e83d ba0f 5f3e
000000e0: e3c9 083e b030 eebd 2f3b 7fbd 354b be3d
000000f0: 6446 eb3d e8e6 99bd 2764 0a3e 981c a23d
00000100: cabb 0e3e ad6d 703e 795d cbbb 100e 06be
00000110: c84f 89bd a7b1 913c cef1 333e 5c1b 2b3e
00000120: 2018 a4bd c465 abbd 1bb6 bf3c 073b 2dbe
00000130: 1715 1bbe 9c66 043d c803 743d 496b e63d
00000140: 43d8 383e 9af8 2c3d 8b95 edbc ce19 3f3e
00000150: 38db d9bd 9e52 433c 4762 853d 6d8e a73d
00000160: d3d1 253e eb50 073e ba22 2fbc 48e8 213e
00000170: e2ce d8bc 5969 703d c997 4c3e 2e87 c2bd
00000180: b7e1 293e 9853 083e 4501 22be 4739 f13d
00000190: c476 4f3e bc26 df3d 4aba 653d abde ebbd
000001a0: 0d11 233d 5f0d 56bc 6389 e3bc 4905 723c
000001b0: 75be 42bc 0764 093e eab6 b3bc f1d6 00be
000001c0: a248 56bc 2936 cbbb edd2 b13d e62f 823e
000001d0: ef3f 09bd ff57 1c3e 5a21 f939 4979 573d
000001e0: ba1c 5d3d d063 f63c abc8 e2bd 7dce 3bbe
000001f0: 0e7d 343d 9796 f7ba cab7 34bd 9499 5a3c
00000200: 4d4b c3bd f896 02be cb23 d63d a885 61bd
00000210: a8d0 6d3d 2c80 1d3e 82a9 263e 87b9 923d
00000220: 4bc7 4cbd b514 b63d 2a85 843e 5de7 b43d
00000230: f55b a23d ad7d 50be 0660 b43d 640c 21be
00000240: 8f60 013d e25a 4e3e e624 94bd 4b4c 4e3d
00000250: a895 01be 93d6 7b3d 6a1b 513e bd22 17be
00000260: 469c 53bd d622 32be 2c1a 123e 6242 ddbc
00000270: 486b c7bd 4ccd 243d 4995 ecbd 5b59 c2bd
00000280: f3e2 e0bd a317 3e3d 302d 2f3e e65d 463b
00000290: 192d e33c d341 c5bd 758d 69bd 458f 093e
000002a0: 239f 203d 7ce5 673e 6402 0bbd 1a3e e0bd
000002b0: d954 133e 2665 0cbe f4d3 263e ae42 89bd
000002c0: 31d9 ed3d 024e 75ba 489e f73d 28d7 bf3d
000002d0: 5152 f6bd 842b f13d 3991 be3c 34d7 103e
000002e0: d5b7 5b3d 7de3 de3d e93c 0abe ebc1 233e
000002f0: eb18 b7bd f52b 28be 40ea 0f3e f438 12be
00000300: 1e25 ec3c 55e0 90bd 6a22 043d ccff 743c
00000310: 4a0e 1cbe 347a dd3d 8c15 12bd 0e57 f93d
00000320: b9cb babd 6888 30be 047a 253e d5ab 9fbd
00000330: 5277 c9bd 9af2 6fbd 3893 19be 01ad 1abe
00000340: 00f4 093e 3797 9fbd 6103 7d3d 3c67 f4bb
00000350: fc6f 123d 15a1 f8bb ca5c 653e a925 0e3e
00000360: ee0a 27bc 5eb7 133e 2cce 74bd 2d5e 2cbe
00000370: 2dc9 513e 7121 223e fb0f 14be cc45 8ebb
00000380: 0095 e1bd ecc5 f23d 6bbf 65bd 0553 543e
00000390: 465a cdbb 767a 7d3e a3ea 78bb bd22 a43c
000003a0: b6cc 313e 2afe 8abd 0170 a0bd 7a43 853e
000003b0: 48cd 25be b8a0 e53d 9db1 e03d 41bd 00be
000003c0: 6be8 1e3e 43fa f2bb 50be 273e 0267 aabd
000003d0: b44b 153e dea8 33bd 15f5 1d3e a97f dabd
000003e0: 556e 92bd 510a 05be 2b56 413e 7f67 ecbd
000003f0: 0285 543d 0ed7 903d 6b2d d83d d193 e03d
0.111988895 -0.15973395 0.03157088 -0.023478162 0.25162375 -0.07961786 -0.0058085136 0.019412464
-0.014584245 -0.16845913 0.24141106 0.05659062 0.14319147 -0.19414486 0.14676252 0.007863459
0.09668107 0.07641604 -0.097697 0.18976209 0.18041943 0.11060107 -0.018221412 0.014395017
0.13421227 0.109235525 -0.08258062 -0.09340067 -0.14500313 0.003380115 0.055339452 -0.080997296
-0.10628273 -0.119014464 0.0499679 0.21530335 0.1824381 0.02878938 0.12623054 -0.10941348
0.23074605 -0.028088268 0.025901686 -0.18536188 -0.022421118 -0.19310494 0.09212564 0.21277465
0.18613856 0.26270398 0.15863982 0.14109653 -0.12795861 -0.10603258 0.11347722 0.21783343
0.13358264 -0.1163038 -0.0623123 0.09291688 0.11488035 -0.07514745 0.13514768 0.0791561
0.13938823 0.23479338 -0.006206211 -0.13091302 -0.0670467 0.017784907 0.1757271 0.16709656
-0.08012414 -0.0836902 0.023402264 -0.16917048 -0.15144764 0.03232442 0.05957392 0.11250932
0.18051247 0.042229272 -0.029001972 0.18662187 -0.10637516 0.011921553 0.065128855 0.081814624
0.16193323 0.13214462 -0.010689432 0.15811265 -0.026465837 0.058694217 0.19979776 -0.0949844
0.1659001 0.13313138 -0.15820797 0.11778503 0.20260149 0.1089606 0.056085862 -0.1151708
0.039811183 -0.013064711 -0.027775472 0.014771768 -0.011886229 0.13417064 -0.021937806 -0.12581994
-0.01307884 -0.0062015248 0.08682809 0.2542717 -0.033508237 0.15267943 0.0004751783 0.0526059
0.053982474 0.030076891 -0.11073431 -0.18340488 0.044064574 -0.0018889484 -0.044120587 0.01334228
-0.09535847 -0.12752903 0.10456046 -0.055059105 0.05806032 0.15380925 0.162756 0.07164293
-0.049994748 0.08890668 0.25882846 0.088331915 0.07927696 -0.20360442 0.088073775 -0.15727383
0.031586226 0.20151857 -0.072336 0.050365727 -0.12654746 0.06148393 0.20420614 -0.14759345
-0.051662706 -0.17396101 0.14267796 -0.027009193 -0.09737259 0.04023485 -0.115519114 -0.094896995
-0.10980787 0.04640926 0.17107081 0.003026837 0.027731465 -0.096316956 -0.05701967 0.13433559
0.039214265 0.22646135 -0.033937827 -0.10949345 0.14387836 -0.1371046 0.16291791 -0.06702171
0.116136916 -0.00093576324 0.12090737 0.0936721 -0.12027419 0.11775878 0.023262607 0.14144593
0.053642113 0.10883234 -0.13499798 0.15991943 -0.089402996 -0.16423018 0.14054203 -0.14279538
0.028826293 -0.07074038 0.032259382 0.014953565 -0.15239826 0.10814324 -0.03566508 0.121748075
-0.09120888 -0.17239535 0.16159827 -0.07796446 -0.09837212 -0.058580972 -0.14997566 -0.15105058
0.13471985 -0.07792514 0.0617708 -0.0074585956 0.035751328 -0.007587562 0.22398677 0.13881554
-0.010195477 0.14425418 -0.059766933 -0.168328 0.20486899 0.1583307 -0.14459221 -0.0043418165
-0.110147476 0.11854157 -0.056090754 0.20734794 -0.006266865 0.24753746 -0.0037981651 0.020036096
0.17363247 -0.06786759 -0.07833863 0.26028043 -0.1619159 0.11212295 0.10971377 -0.12572195
0.15518348 -0.0074150874 0.16381192 -0.083204284 0.1457966 -0.043862216 0.15425523 -0.106688805
-0.071499504 -0.12992217 0.18880527 -0.11543178 0.05188466 0.070722684 0.10555538 0.10965694

linear2.bias f4 [30]
00000000: 6b3e 22be cf59 c63c 3519 f63d 808a adbd
00000010: f27e d7bc b5e8 673d 9cf3 323e a6e8 823c
00000020: ed70 d03d e262 83bd f01a 65bb 1953 a3bd
00000030: 9d43 e53d 55ff e33d 313c 8cbd d8bc 11bd
00000040: 4e05 4a3a e0f3 95bd dc59 dcbd 2acf 2a3e
00000050: 53fd 6cbd abc9 2dbd 5e46 10be c025 35be
00000060: b1d3 ddbd b601 b13d 9ffe b83d 60ec 563d
00000070: 963d 483e ee12 cebb
-0.15844123 0.024212746 0.120165266 -0.084736824 -0.02630565 0.05661841 0.17475742 0.015980076
0.10177789 -0.06415345 -0.0034958683 -0.07974834 0.11194537 0.11132685 -0.06847418 -0.035580486
0.0007706479 -0.07321906 -0.10759327 0.1668059 -0.057858776 -0.042428654 -0.14089343 -0.17690182
-0.108313926 0.086429045 0.0903294 0.05247152 0.19554743 -0.0062888777

linear3.weight f4 [1, 30]
00000000: eb26 293d 2f40 4e3d 9a52 033d 5fd6 903d
00000010: e4c2 323d 26c8 9d3c bb31 1d3d 1971 4c3d
00000020: 1dc3 c13c 76cf babd adfd 0f3d 37d6 76bb
00000030: 65a9 9fbb 5b59 8e3c be0b b53c f77a 16bd
00000040: ce3f f03c 39d1 203d 1989 d13c 5f81 153d
00000050: f69c 353c a9f1 293d 1d76 ee3c 2240 28bb
00000060: 3eee 2f3b 4f28 bf3c b738 423d f5a7 423d
00000070: 2884 9c3d 5f27 4f3d
0.04129688 0.05035418 0.032061197 0.07072138 0.043642893 0.019260477 0.038377505 0.049912546
0.023652608 -0.09121601 0.035154033 -0.0037664303 -0.0048724883 0.017376592 0.022100326 -0.036738362
0.0293273 0.03926203 0.025578069 0.03650033 0.011084786 0.04149023 0.029109055 -0.0025672992
0.0026844884 0.02333465 0.04741737 0.047523458 0.07642394 0.050574657
