codes/DQN/saved_model/20210527-144702/dqn_checkpoint.pth (torch_old, 70655 bytes, 6 tensors)

fc1.weight f4 [128, 4]
00000000: 33f9 3e3e 0b6f 64be bdd3 99bf 886f 1cbe
00000010: 1309 4a3e dfc5 2abe 9747 513e fc36 643e
00000020: fa18 55be ecbe b73e 5968 d23f c8a3 853d
00000030: 37ca 74be a397 a23e 7b47 b0be cf7b 513e
00000040: aaba f3bf 84cb 38bf 7cd5 47c0 730f 28bf
00000050: bc98 43bd 39a1 cdbd 78d3 71be 483d 0ebe
00000060: 37be 073e 5ba9 64be 2c5c e7bc f06e 203e
00000070: ef68 e4bd 09e4 be3e ea21 0940 b7cb d13e
00000080: 1cf1 4e3e f324 6fbe a48d 29bf c1d4 62be
00000090: 4e1f 433b 0878 10bc 8076 f53b 8e68 42bc
000000a0: 287f 993e 799e 8d3d a825 a13e a1c1 afbe
000000b0: f2ff df3e 5c21 cebe 8cca 05be e891 20bf
000000c0: 1540 c03e ecf1 15bf e937 c6bf ebc6 e7be
000000d0: 4972 1d3e 2d9f edbe e471 31bf 4b22 56bd
000000e0: 3f02 31be f71d 57bd 2f37 5d3e 34fa 06be
000000f0: eacf 0c3d 38c0 cb3b 60e5 a23e 3339 a63e
00000100: e6b3 813e f090 d7be e53e e83e 895e 39be
00000110: aa36 0540 cf30 6fbf 494c 3a3f fdbd 08bf
00000120: c38a f3be 88e6 afbe 6ce5 b7bf e851 75bf
00000130: 04e5 bebe 7987 193f e1f1 8f40 1413 013f
00000140: 95c4 e3bc 950b 6a3e 915c 86bf 73cc 92bb
00000150: 7aec 35bf 52c4 193f 1c85 f840 a43d c33f
00000160: 460f 8dbc 2f76 bfbd 6a37 0cc0 7dd8 f13c
00000170: 90bd d3bd a8f7 6f3e 14bc 4f3e e8f3 db3d
00000180: f38c f4bd 7eb2 fc3c 8ccd eebd 5ce1 1d3d
00000190: bac0 d3bd 416e 513e 35a3 22bf 86bd df3d
000001a0: 626a 593e 1b5d 8c3f 515d 02be 891f 7e3e
000001b0: 5849 6e3d e81c 793e cc5c 623f b27c a03e
000001c0: a35d 723e 66b5 a9be 18cd 593e 7702 32be
000001d0: a3a3 053f 12ff 8dbf 9f9d b23d a1cf 8abf
000001e0: 0aef 31be 71ea 723e 2f40 5ac0 92d9 653e
000001f0: 655a 2ebc 97b1 bb3d 2bca 02be 30a5 cf3e
00000200: 1b40 a83e bce3 70be 85ff 063f 7bff 90be
00000210: 49cb 80bd 6ba0 2abe b94b 963e 9194 40be
00000220: df5d 67bf 5677 47bf 5db4 1cbf a9f9 8a3d
00000230: 9345 a9bf 333c d23e 1d89 893e 8a68 053f
00000240: a098 b1be c20a b13e 6043 ef3f 5638 a43e
00000250: 762e abbd 576c 5e3e 010c e6be 5987 07bc
00000260: 405a dc3e 58e9 113b 02e1 f23e 5f94 a93d
00000270: 80fa a8bf f92b 0cbe 2604 94c0 2e83 d9bf
00000280: 6ac9 49be ad5f 3d3e 5e53 0b3e d819 363e
00000290: 096e d8be cc9a 9e3e 2c21 34bf be05 1a3f
000002a0: 9e63 8bbf f66e 683f 73ec 3040 744d 733f
000002b0: 4581 0d3f b09d bcbc 105b 10bf 7482 cebd
000002c0: 2de2 ca3e e9d1 babe e2b3 1ac0 8cb6 cfbe
000002d0: 8807 45bd 9fbb 5c3e cd79 1140 34cc 7fbe
000002e0: b6be c33e 6c63 c7be 8f2f 463f 167e df3d
000002f0: 2f2c 533e e601 aebe 1527 a43e 95fd e9be
00000300: 5ca6 373e 2e66 8bbe 1e78 71bf fd52 56be
00000310: 0cee 2a3f 7400 08bf 7db8 583f f21f 9f3e
00000320: dfb3 5040 aeb5 b5bf 316b 70c0 518a 99bf
00000330: 6894 1cbe f727 4dbc 0df2 c2bf 3682 ea3d
00000340: 303e 203e c5e8 0d3e 363d 163d 97df 7a3e
00000350: 8653 c7be a8b6 3d3f 0403 ab3c 02cc 353f
00000360: 51d0 1d3f a839 bfbe 5f7b b63d a2f7 85be
00000370: 6abe d3bd e119 313c f964 f2bd 46bb 0abe
00000380: 76a2 0040 9499 0abf 9467 84c0 3a9f 1abf
00000390: 2b02 ddbe 4644 093e 5c08 8940 b637 6c3e
000003a0: 807e 9dbd 8cb3 5e3d 19b5 a4bf b7fa 643d
000003b0: 66c3 833e 941e fcbd 0b37 b3bf 6385 a13d
000003c0: bd74 b03d 39c5 cd3d cbfd 203e b9b4 a13d
000003d0: 7f83 38bd 770a 7a3e 6fd1 33be 1f89 aa3e
000003e0: 0831 743e ee12 0ebe 389b 723e 80e5 0ebe
000003f0: b643 a03f 2f2e 41bf bec0 8fc0 4298 38bf
0.1864975 -0.22307985 -1.2017742 -0.15276921 0.19730024 -0.16677044 0.20437466 0.222866
-0.20810309 0.3588785 1.6438094 0.065253794 -0.23905264 0.31756315 -0.34429535 0.20457385
-1.904134 -0.7218554 -3.122405 -0.65648574 -0.04775308 -0.100405164 -0.23615825 -0.13890564
0.13256155 -0.22330229 -0.028242193 0.1566732 -0.11152827 0.37283352 2.142695 0.40975735
0.20209163 -0.23353939 -0.6623175 -0.22151472 0.0029773298 -0.00881768 0.007490933 -0.011865748
0.29979825 0.06914992 0.31474042 -0.34327415 0.43749958 -0.40259826 -0.13065547 -0.62722635
0.3754889 -0.5857227 -1.5485812 -0.4526895 0.15375628 -0.46410504 -0.6931441 -0.052278798
-0.17286013 -0.05251881 0.21603082 -0.13181382 0.03437797 0.0062179826 0.31815624 0.32465515
0.25332564 -0.42102766 0.45360485 -0.18102469 2.0814614 -0.9343385 0.7277265 -0.534149
-0.47566804 -0.3435557 -1.4366889 -0.95828104 -0.372841 0.5997234 4.498276 0.50419736
-0.027803699 0.2285598 -1.0496999 -0.0044799387 -0.7106396 0.60065186 7.7662487 1.5253186
-0.017219197 -0.093487136 -2.1908822 0.029522175 -0.103388906 0.23434317 0.2028659 0.10739881
-0.119409464 0.03084683 -0.11660299 0.038544998 -0.10339494 0.20452215 -0.63530284 0.109248206
0.21231988 1.0965914 -0.1273091 0.24816717 0.058175415 0.24327433 0.88422847 0.31345135
0.23668532 -0.3314621 0.21269643 -0.17383753 0.52202815 -1.1093466 0.0872147 -1.0844613
-0.17376342 0.23722245 -3.4101675 0.22446278 -0.010641669 0.09164732 -0.12772433 0.40555716
0.3286141 -0.23524374 0.5273364 -0.28319916 -0.062887736 -0.16662757 0.29354647 -0.18806674
-0.9037761 -0.7791647 -0.6121271 0.067859 -1.3224357 0.41061553 0.26862422 0.5211264
-0.34686756 0.3457852 1.8692436 0.3207423 -0.08358471 0.21721016 -0.44931033 -0.0082720155
0.43037605 0.0022264328 0.47437292 0.08280253 -1.3201447 -0.13688649 -4.6255064 -1.6993158
-0.1970574 0.18493529 0.13606021 0.17783296 -0.4227145 0.30977476 -0.70363116 0.6016501
-1.0889776 0.9079431 2.7644317 0.9504006 0.55275375 -0.02302441 -0.5638895 -0.10083476
0.39625683 -0.36488274 -2.4172292 -0.4056896 -0.048102885 0.21555947 2.2730591 -0.24980241
0.38231438 -0.3894304 0.7741632 0.10912721 0.20622323 -0.33985823 0.32061067 -0.4570128
0.17934555 -0.27226394 -0.9432391 -0.20930095 0.6676948 -0.5312569 0.84656507 0.3107906
3.2609785 -1.4196069 -3.7565424 -1.1995336 -0.15290987 -0.012521735 -1.5230118 0.11450617
0.15648723 0.13858326 0.03667947 0.24499355 -0.3893091 0.74106836 0.020875461 0.71014416
0.6164599 -0.37348676 0.0891025 -0.2616549 -0.10339053 0.010809393 -0.11835665 -0.13548002
2.0099158 -0.5414059 -4.137644 -0.6039921 -0.43165717 0.1340495 4.2822704 0.23068127
-0.076901436 0.054370448 -1.2867767 0.055903163 0.25735015 -0.1231052 -1.4001173 0.078867696
0.08616016 0.10047383 0.15721814 0.07895798 -0.04504728 0.24418055 -0.17560361 0.3330774
0.23846829 -0.13874409 0.23692024 -0.13954735 1.2520664 -0.75461096 -4.492278 -0.72107327

fc1.bias f4 [128]
00000000: 7367 11bf 1375 58bf 82b8 b8bf c199 d3be
00000010: 80a6 77bf 2b02 97bf 1df9 6ebf 235f c7bf
00000020: 7880 32bf d8c4 03bd e748 6dbf 374d aebf
00000030: 7581 97bf 33a6 93bf e717 1fbf 3a33 69bf
00000040: 535f 56bf 8ed6 62bf 6373 30c0 b87c d4bf
00000050: 0085 eabf ffa4 79bf c876 3dbf 54a6 dfbe
00000060: 861b 22bf fe50 c9be 111e 9abf 73f0 843f
00000070: d171 8cbf 9471 22c0 e4a6 6abf 259b 64bf
00000080: fc8a 63bf 2a3e 2cbf 34ad f4be 4727 2fc0
00000090: cef3 59bf 56b0 83bf 7ba0 803f 24e0 00c0
000000a0: cd3f cabe f868 8ebf 5805 1e3d 1f7a abbf
000000b0: 43eb a3bf aa15 c3bf b683 76bf 8009 3dbf
000000c0: 5efa 10bf 4eac f6bf 3565 aabf d6fe 52bf
000000d0: fb29 95bf 2aec bcbf cefc a0bf 2d80 20bf
000000e0: 24eb a3bf 2e27 e6bf 5df7 b4bf 5e41 84bf
000000f0: 1dc1 12bf db30 09bf d912 fcbe 76fe f5bf
00000100: 0960 e9bf a131 95bf d5df 17bf 1f46 80bf
00000110: eada 38bf 6a0c f1bf 1f03 9bbf 1701 22bf
00000120: 7489 afbf 2dce 69bd b152 84bf be87 aabf
00000130: d2ea 8abf 359d 4cbf 6c78 2cbf a3e2 8abf
00000140: e747 9fbe 82e2 05bf 547d 8abf 5e2a 8b3f
00000150: de8b afbf 91f7 0ebf 7449 16bf 911b 85bf
00000160: 0805 3bbf 1d11 8abf cd6c 89bf 9d20 fcbe
00000170: e203 54bf 2b02 8abf 0ebc 19c0 62ce bbbf
00000180: 2628 a7bf 5ea6 90bf 8742 8bbf 1597 ccbf
00000190: e2c9 03c0 3efe afbf 04da 3fbe c9b5 ddbf
000001a0: c852 26bf 3388 393e c56d 20c0 d785 96bf
000001b0: 3a0a 78be a282 2cbf a047 46bf 7db5 85bf
000001c0: eefc bdbf b261 20bf 56ee 7dbe a56c 9abf
000001d0: 7c03 babf d0b7 813f 4b80 34bf d01a 643e
000001e0: 63fc 5abf e769 0dbf 2743 5ebf c9a6 8dbf
000001f0: 8d91 2abf 5eda 9abf 5e0e b5bf 7335 f2be
-0.56798476 -0.8455364 -1.4431307 -0.41328242 -0.96738434 -1.1797537 -0.93348867 -1.5575908
-0.6972728 -0.032170147 -0.92689365 -1.3617314 -1.1836382 -1.1535095 -0.6214585 -0.9109379
-0.83739203 -0.88608634 -2.7570426 -1.6600561 -1.8321838 -0.9751739 -0.7400937 -0.43681586
-0.6332325 -0.39319605 -1.2040426 1.0385879 -1.0972234 -2.5381823 -0.91660905 -0.8929923
-0.8888395 -0.67282355 -0.47788393 -2.7367723 -0.8513764 -1.0288188 1.0048975 -2.0136805
-0.395018 -1.1125784 0.038579315 -1.3396643 -1.2806171 -1.5240986 -0.96294725 -0.7384262
-0.5663203 -1.9271333 -1.3312136 -0.824201 -1.1653436 -1.4759572 -1.257715 -0.6269558
-1.2806134 -1.7980707 -1.4137989 -1.0332448 -0.5732592 -0.5359017 -0.4923313 -1.921828
-1.8232433 -1.165577 -0.59325916 -1.0021399 -0.72209036 -1.8831913 -1.2110327 -0.6328291
-1.3713822 -0.05708139 -1.0337735 -1.3322675 -1.0852911 -0.7992738 -0.6737125 -1.0850414
-0.31109545 -0.5229875 -1.0819497 1.0872304 -1.3714559 -0.55846506 -0.5870583 -1.0399038
-0.7305455 -1.0786473 -1.0736328 -0.49243632 -0.82818425 -1.0781912 -2.402103 -1.4672358
-1.3059127 -1.1300771 -1.0879678 -1.5983607 -2.059197 -1.3749464 -0.1873551 -1.7321101
-0.64970064 0.18118362 -2.5066998 -1.1759595 -0.24222651 -0.6738683 -0.7745304 -1.0446011
-1.4842813 -0.6264907 -0.24797949 -1.2064406 -1.4532313 1.013422 -0.7050826 0.22275853
-0.8554136 -0.5523972 -0.86821216 -1.1066524 -0.6662834 -1.209789 -1.414501 -0.47306404

fc2.weight f4 [128, 128]
00000000: d684 b93e 0bd0 85be a23a 663d 5a48 973d
00000010: 6af2 4a3f e53d 0ebf bb6c 47be 2252 14c1
00000020: fe6e 093f d4e2 923e c406 efbd 40d4 983e
00000030: a355 00bf b80e 0d3f b562 f13e b0af 6f3e
00000040: af83 193c 8b3b 0a40 0eff 1540 00fa c5c0
00000050: 2822 ba3f 993a 05c0 6c0c bfbe 7514 3ebd
00000060: df8f b4be 5d96 a9bd 7d2e ccbe 8b75 7c3e
00000070: 0a99 5fbe 064a d6bf 6787 0e3f f825 aabe
00000080: 17fb babe 9726 b63e d56f 2ebf f31a f7bf
00000090: 41ef 27bf 0d06 813e 40ae f13e 2332 2040
000000a0: 8ea0 eb3d a499 003f ce52 9e3f 2f21 a8be
000000b0: 5956 9fbf b490 c4bf c19e a8bf e579 4d3e
000000c0: 76b7 4b3e f053 02c0 4161 8840 5ff9 9b3f
000000d0: cab2 043e 44ef 3ac0 738c fc3e 4f7b fabe
000000e0: 9c16 2f3e 9fd1 dec0 e1a6 843e 4a4a aabe
000000f0: e2ff 4e3e b677 bb3e 5e38 813e 756c c2bf
00000100: 585d 03be f043 62bf a58c 05be d325 15bc
00000110: 2767 a5be 363c 9f3f c860 6c3c 0399 903d
00000120: adf2 d4bf 8394 b73e 8a4f 923c c8c5 2cc1
00000130: b226 50bf 60c7 513e 8b1e a03d f9c5 11bf
00000140: a50d 24be aacb 92bf 5c14 333e 3dc6 a03e
00000150: 3ab2 3dc0 56bf 45be 3013 1f3f 2269 753f
00000160: ead7 9abe e090 40bf 2f65 be38 3d9c 55be
00000170: c75d b43d d506 d93e e489 50c0 d9b2 21bf
00000180: 6ace 69be 6f22 6dbf 09f7 a03f 0651 ce3f
00000190: feb4 3240 fb69 16be 1d4a 813d 53a9 23c0
000001a0: 74c2 c9be 627e 4bbf 97ed acbf 4163 15bf
000001b0: e901 06be c58e dd3c 8749 1b3d 2f67 e43a
000001c0: 3f0d 32be 8ff2 42bd 1328 e2be c423 a13e
000001d0: c22d 79bf b182 603e 7dbe 813d 7b8f 303f
000001e0: d9b6 e03d 7ac9 0fbf 3d4a 3f3f 336b 37c1
000001f0: ee75 01be 8289 90be cfe2 8e3e b4ad 02bf
00000200: 5c4a acbe 6e1d 66be faa2 49bf 9b04 933e
00000210: f475 ddbf dd83 6e3e f881 16be c4ae de3e
00000220: e00c 123d 207b c53d 0ec4 9ebe 5b83 6dbf
00000230: 33b5 23c0 e581 02bf bb7c b43b 42df 1ebd
00000240: b6fc 14bd 09a1 cf3f 87f6 73c0 e8f3 63c0
00000250: 89b5 213f 309b 903f 06cb 21bf 8b05 a03d
00000260: a21e 083e f25e 433d bc2c 83bf 7ca7 e23e
00000270: d3a3 d6be 0377 b43f 5842 3e3f 9443 cabe
00000280: 00a5 093e 9c75 8cbe 54b6 843f e054 c73e
00000290: 1729 cebd 664b a03e 09e9 e53e 7e93 1cc0
000002a0: ed98 9dbd f26a 063f 2315 763f 69f1 98be
000002b0: 58fa 10c0 6115 ffbf d0db d0be d032 dcbe
000002c0: 01f3 aebe d32a 243e e4c5 76c0 a549 2fbf
000002d0: f84e 0fbf dce2 0b3f 9396 00bf 7799 06be
000002e0: 92e3 f9bf 0597 88bf eb95 9ebf f6a9 b0be
000002f0: b12a d5bd 229c fabe 0b8e 003e cb33 15c0
00000300: 0e52 f5bf b265 37bf f23f 543e bc68 9bbf
00000310: 61f7 6c3e 8b28 0ec1 67d5 78be 39b6 a2be
00000320: 0dc2 ddbe 817a e93d 98a1 763e 2ce4 debf
00000330: 27fd 273e 9cb1 44be b446 0ebd 714c 36bf
00000340: 70fc 8abd 6754 60be c3b3 23be f07d fd3e
00000350: 65e8 44be 320d 293e ac92 11c1 c76c 35bf
00000360: d439 60bf 06db 59be effd 1abe fb21 0b3e
00000370: 313f b4be aa26 0bbe 3499 02c0 1c17 15bf
00000380: ebf6 b3ba b52d 4f3e f7a5 75bf 488f 95c0
00000390: d9a6 cec0 da59 e03d c6a4 02be e5ce 353f
000003a0: 26aa c53d 3553 d1bf 9977 b43e 7176 76bf
000003b0: 25d4 41bc 2a0c a03d 3cac 43be 0834 1a3e
000003c0: 4fbf e7bf 6b7c 90be d757 003e a0f1 0cbe
000003d0: fbac b8be c477 003f 0f8d 15be c42a cd3d
000003e0: f77a 43be 9f89 7d3e 45c8 22bf f1ad a9bf
000003f0: 2c3b 28bf 9e32 0abe 09cc bb3e 1509 62be
0.36234158 -0.26135287 0.05620826 0.07386847 0.79276145 -0.55563194 -0.19475071 -9.270052
0.53684986 0.2868868 -0.11671212 0.29849434 -0.5013067 0.55100584 0.4714562 0.23406863
0.009369775 2.1598842 2.3436923 -6.1867676 1.4541674 -2.0817015 -0.37314165 -0.046406228
-0.35266015 -0.08280633 -0.39879218 0.24654214 -0.21835724 -1.674134 0.5567536 -0.33232093
-0.3651969 0.35576317 -0.6813939 -1.9305099 -0.6559945 0.2519993 0.47203255 2.50306
0.11505233 0.50234437 1.236902 -0.32837817 -1.2448226 -1.535666 -1.3173448 0.2006603
0.19894204 -2.0363731 4.261872 1.2185477 0.12958828 -2.9208536 0.49325904 -0.48922202
0.17098469 -6.9630885 0.25908569 -0.33259803 0.20214799 0.3661477 0.25238317 -1.5189348
-0.12828577 -0.88384914 -0.13041933 -0.009103256 -0.32305261 1.244025 0.014427371 0.07060435
-1.6636559 0.35855493 0.017860193 -10.798286 -0.81309044 0.20486212 0.078183256 -0.5694271
-0.1602083 -1.1468403 0.17488235 0.31401244 -2.964003 -0.1931127 0.6213865 0.95863545
-0.30242854 -0.7522106 9.078753e-05 -0.20860381 0.08806949 0.42388025 -3.2584162 -0.63163525
-0.22832647 -0.92630666 1.2575389 1.6118476 2.792297 -0.14688866 0.06312964 -2.5572097
-0.39406168 -0.7948972 -1.3510007 -0.58354574 -0.13086666 0.027045617 0.037911918 0.0017425771
-0.17387865 -0.047594603 -0.441712 0.314726 -0.97335446 0.21924855 0.06335161 0.68968934
0.109723754 -0.56166804 0.74722654 -11.463672 -0.12642643 -0.2822991 0.27907416 -0.510463
-0.33650482 -0.22472164 -0.7876431 0.2871445 -1.7301621 0.2329249 -0.14698017 0.4349271
0.03565681 0.09642625 -0.31008953 -0.9277856 -2.5579345 -0.50979453 0.005508033 -0.038787134
-0.036373816 1.6221019 -3.8119218 -3.5617619 0.63167626 1.129736 -0.63200414 0.07813557
0.13292935 0.04769797 -1.0248027 0.44268405 -0.41921863 1.409882 0.7431998 -0.39504683
0.13441849 -0.2743348 1.0368142 0.38931942 -0.10066431 0.31307524 0.44904354 -2.4465022
-0.07695184 0.52506936 0.96126 -0.2987168 -2.2652798 -1.9928399 -0.40792704 -0.43007517
-0.34169772 0.16031961 -3.8558283 -0.6847175 -0.5597987 0.54643035 -0.5022976 -0.1314448
-1.9522574 -1.0671088 -1.2389501 -0.3450467 -0.10408533 -0.48947245 0.12554185 -2.3312862
-1.9165666 -0.7163955 0.20727518 -1.2141337 0.23141243 -8.884898 -0.24300157 -0.3177965
-0.43312111 0.11400319 0.2408508 -1.7413383 0.16405164 -0.19208378 -0.034735397 -0.7121039
-0.0678643 -0.21907197 -0.15986542 0.49510145 -0.19229276 0.1650894 -9.098309 -0.70869106
-0.8758824 -0.21274957 -0.1513593 0.13587181 -0.3520446 -0.13588968 -2.0406008 -0.5823839
-0.0013730204 0.2023228 -0.9595637 -4.6737404 -6.457867 0.10954638 -0.12758169 0.7101882
0.09651594 -1.6353518 0.35247496 -0.9627448 -0.011830364 0.0781482 -0.19108671 0.15058911
-1.8105258 -0.28219923 0.12533508 -0.13764048 -0.36069474 0.5018275 -0.14604591 0.100179225
-0.19089876 0.2475953 -0.6358684 -1.3256208 -0.6571529 -0.13495871 0.36679104 -0.22073777

fc2.bias f4 [128]
00000000: cef5 4a3e 098e e73f c201 cfbe eaf4 b0be
00000010: 1801 ad3a 1620 dbbe 9e09 e7bd 9cef 1a3a
00000020: 7a74 d13c a7e3 2840 3f5e 3240 25b2 0240
00000030: df75 3a40 fa4f d1be fb5f 92bd bb0d e1bd
00000040: 9f7d bcbc ee3b c9be 0d5c 75bb 044f 9ebd
00000050: 01a2 2940 f95b 16be 35a6 95be ccdc 5dbe
00000060: a73b 70bd eb34 fcbe 5e5d 4b40 e539 3840
00000070: 8a04 94bd 7d65 ccbe 004a 8abe 0b1d 1fbd
00000080: 15a9 cebd 5646 73bb d66b 00bd 3435 8f3f
00000090: 204e 30be d7c0 d73c 7218 95be ee98 abbd
000000a0: f463 8c3e 553f 14bf 55b7 70bd 2f6b c1bd
000000b0: 54d9 853c ce7a 07be 524c 3d40 95a4 2cbe
000000c0: 3627 09be e448 8a3c 8d4f 04bd 3307 2bbc
000000d0: 399b cbbe 8ae0 4dbd b0dc d1be 3c85 8abd
000000e0: bbb8 a2bd 6a08 f5bd 683e 0040 6972 14be
000000f0: b3e0 0840 0a14 77be 768f 03bc e8a9 24be
00000100: d068 ddbd ab3e 5ebd 6600 bebd bd77 12bd
00000110: 7982 aabe db03 f9bd 05f2 a8bd e3af 5fbd
00000120: 0fee 0bbf 45e2 4540 82aa 2bbe 6516 9a3e
00000130: 576b bfbe e224 9fbe 7ce2 2fbd 1265 9a3c
00000140: d2e2 0640 64fe 6fbe 3ab9 e3bd 3703 4dbe
00000150: a680 843c bfed 77bd a18b a9bd b4f7 b5bd
00000160: 23e9 10be 0b47 c6bc 5cef 22bf f0af a5bd
00000170: f72c 76be dc72 9f3f bdc8 2bbd 726d 11be
00000180: 137c 3bbe b5d9 0cbc dcab 0bbe 1f81 1cbe
00000190: 7b6f 99bd c444 0640 a975 5cbd d38e 3540
000001a0: f2e5 943c 94e1 8abd 1564 0340 cac0 94be
000001b0: bd49 1440 c52b aabe c0fb 00be aa63 97be
000001c0: 732f c8bc c4e1 19be d829 e53c a6e3 8c3b
000001d0: 9160 763e 0698 cabe b870 09bb 991e 1e40
000001e0: c31d f73a ed86 e03a 10d8 87be d9bd c9bc
000001f0: 626e 523c f576 bfbd 680e 1b40 72af 1640
0.1982033 1.8090221 -0.4043103 -0.34561855 0.0013199179 -0.42797917 -0.11281131 0.00059103384
0.025568236 2.6388948 2.7870023 2.042123 2.9134443 -0.4088133 -0.07147213 -0.10988947
-0.02300912 -0.39303535 -0.00374389 -0.07729915 2.650513 -0.14683522 -0.29228368 -0.21666259
-0.05865064 -0.49259123 3.1775737 2.8785336 -0.07227428 -0.3992118 -0.27009583 -0.038846057
-0.100908436 -0.003712078 -0.03135284 1.1188111 -0.17217302 0.02633707 -0.29120213 -0.083787784
0.27420008 -0.57909137 -0.05876859 -0.09444272 0.016338982 -0.1323044 2.9577832 -0.16859658
-0.13393864 0.01688046 -0.032302428 -0.010438728 -0.39766863 -0.050262965 -0.40988684 -0.06763694
-0.07945391 -0.119644955 2.003809 -0.14496769 2.1387146 -0.24128738 -0.008029809 -0.16080439
-0.10811007 -0.054258984 -0.0927742 -0.035758723 -0.33302668 -0.121589385 -0.082492866 -0.054611098
-0.54660124 3.0919354 -0.16764262 0.3009521 -0.3738658 -0.31082827 -0.0429406 0.018847022
2.107594 -0.23436886 -0.111193135 -0.20020758 0.016174626 -0.060529467 -0.08278585 -0.08885136
-0.14151435 -0.024203798 -0.63646483 -0.08090198 -0.2404059 1.2456927 -0.041939486 -0.14201906
-0.1830905 -0.008596827 -0.13639778 -0.15283631 -0.07491966 2.0979471 -0.053823147 2.8368423
0.018176053 -0.06781307 2.0529835 -0.29053336 2.3170006 -0.33236519 -0.12596035 -0.29568225
-0.024436688 -0.15027529 0.027974054 0.0042995987 0.24060275 -0.3956911 -0.0020971727 2.4706175
0.0018853474 0.0017130055 -0.2653203 -0.02462666 0.0128437 -0.09348861 2.4227543 2.3544583

fc3.weight f4 [2, 128]
00000000: bf6e 583e ae06 74bf 74e6 99bb a9b6 9bbe
00000010: a4bc 2abc b2ba 3d3d 0707 06bc 73a4 063e
00000020: 98e2 833c 833a d03f a1f1 9e3f cc73 dcbe
00000030: 127b b23f 23a0 93bf 29e0 0f3d c35d 143d
00000040: a585 793d 4428 8d3e 749c 0b3e 13f7 c63d
00000050: c9df b73f 8138 d1bc 1f0e 183e 0e88 ccbd
00000060: c84e 753d 0534 13bc 6e73 b13f 96e4 b43f
00000070: 97ac c33c 915c 823e d0a0 3a3c 1166 eb39
00000080: f0e5 7dbc 6182 22bc 61a7 24bd dc92 e23e
00000090: ee17 603d 91ea b2bc 2959 e43c 715c 113d
000000a0: 5d68 2ebf ba3a 783e 1c23 ca3b 5da3 153c
000000b0: 20cd 7dbd 702a 853d 2474 aa3f 4476 4d3e
000000c0: 2105 953d 5a13 8c3c b392 3fbc bc73 243c
000000d0: a2c1 78be 91db bd3d c70a 9bbc e449 4c3d
000000e0: b7aa 963d 4a2a 323c 979d a83f 79f7 983d
000000f0: 0d1d b73f 8a9d 7e3c eeec 853d 3750 afbd
00000100: 5915 dbbd e61a 9dbe 9971 9cbc 1e6f 83bc
00000110: 8f27 63be 2573 c43b 7dda c6bc fc61 8c3b
00000120: 7290 97be 479e ac3f 6f09 253c 2055 6b3d
00000130: b97d 9b3d 7c1b 76bc 228e e63d 7aa4 b33c
00000140: 8279 9c3f f1fa cb3d e5d1 e7bc aede 463e
00000150: 780f 943d 0af8 b33c bb67 c939 14bd e2bc
00000160: ae1c 713d 4460 3d3d bab7 8abe 2d42 343d
00000170: a346 603e addf bc3f d87e 7c3c 014d 913d
00000180: 2268 00bd c706 0bbd 8212 8d3d 2447 11be
00000190: a5c3 0c3e f771 a03f cc3b 703c ed07 943f
000001a0: b3eb ac3c da01 e7bc d4f6 963f 11e4 93be
000001b0: 709e 0a3f 3be1 a43e 23b9 af3d c89c b3bd
000001c0: 8095 edba f620 3bbd 8e59 bd3d 9322 03bc
000001d0: 18c7 963e 3aac c03c 273e e73d 495c bc3f
000001e0: 992a 413d c5ff c3bd 16e0 a93d 766c b33c
000001f0: 5e08 043d 567a ef3d 20ce aa3f daf5 323f
00000200: a319 8dbf 7c20 ab3f dca1 8abe ccc2 753c
00000210: b952 03ba a466 98be 05dc dcbd fbf6 98bc
00000220: 6f4d 983d c215 0640 8b5b 8b3f 6710 cc3f
00000230: 3547 bb3f 3148 8fbf 7486 923d 0b3d b7bc
00000240: ee25 293d 7092 f33c ac78 a5bc 377e 813d
00000250: a044 903f 998c 893d 0234 29be eb37 e13d
00000260: 7d9d 2abc 9d68 eb3d 4c6b c43f b961 b23f
00000270: 23b9 9e3b 28c8 013e fe6e 373c d9e3 ad3d
00000280: 35a4 5f3d e580 8d3c cb21 78bc b8fb a9bf
00000290: 140d c73d c2bf 483d 12ce 9c3e 596d 4f3d
000002a0: c3d6 f13e ffd5 703e 0e73 dabc 2557 acbc
000002b0: 025b 35bd 1c45 9abc 3da0 983f 623f 383e
000002c0: 5299 35bc c195 6c3d c57c d23a 9d40 8f3d
000002d0: 802d 583c b3a3 803c 785b 77be 6deb f13c
000002e0: 8809 2f3c 9004 9e3c 8c11 3d3f 69f7 363d
000002f0: fbb9 c93f 14c0 6fbd bafb 0a3c fcc5 163e
00000300: beca 4dbe 4042 ad3e eff1 a63d 0076 0e3d
00000310: 82af a6be 660e 94bc 1c90 833d c898 b6bc
00000320: e3f6 02be c5d0 af3f dddf b9bd 78ca a63d
00000330: 95f6 9bbe 7905 9c3e a9cb fcbb 9a63 5c3c
00000340: eabf a73f f3b9 343d 1dcd f73c fc9d 66bc
00000350: f9f2 a43c cd6b 67ba 4e82 b4bc 7949 a03d
00000360: 6f0c 123d fce1 abbc 5791 afbe 3f09 dcbc
00000370: afc6 7dbd a78c 52bf 14f9 8d3c e8cd fb3c
00000380: a016 c8bb 7410 493d 2e12 053d 4a09 333d
00000390: 5ac5 9dbc 4dce 8c3f ed05 843d 40b8 a73f
000003a0: 2139 48bb 2a4c 923d 2938 293f 3687 91be
000003b0: 5738 8d3f 3984 bd3e 8a60 f43c ba43 e0be
000003c0: cc9e 933d 5a74 a63e 3705 c63c 3b67 913d
000003d0: 8921 2dbe 2013 1fbd 9917 babc f733 743f
000003e0: 80de 2a3e ee57 193d b908 eb3d ffec 81bd
000003f0: 555c 8e3d 8a1c 9bbc 3324 133f 629d 123f
0.21135996 -0.9532269 -0.0046966616 -0.30412796 -0.010420952 0.046320625 -0.008180386 0.1314867
0.01609926 1.6267856 1.2417489 -0.43057096 1.3943808 -1.1533245 0.035125885 0.03622223
0.06091847 0.27569783 0.13633901 0.097150944 1.4365169 -0.025539638 0.14849137 -0.09986888
0.059889585 -0.00898457 1.3863351 1.4132259 0.023886008 0.25461248 0.01139088 0.00044898738
-0.015496716 -0.00991878 -0.040198687 0.4425267 0.05471032 -0.021840366 0.027874546 0.03548855
-0.68127996 0.24241152 0.006168736 0.009133187 -0.0619632 0.06502235 1.3316693 0.20064646
0.07276369 0.017099071 -0.011692691 0.010037359 -0.24292615 0.092703946 -0.018926037 0.049875155
0.0735678 0.01087434 1.3173093 0.07469077 1.430574 0.01554049 0.065393314 -0.08560222
-0.10697431 -0.30684584 -0.019097136 -0.016044196 -0.22183059 0.0059951716 -0.024274105 0.0042841416
-0.2960239 1.3485802 0.01007305 0.05745423 0.07592339 -0.015021201 0.112575784 0.021929014
1.2224581 0.09959973 -0.028298328 0.19420883 0.07229513 0.02196886 0.00038414993 -0.02767805
0.05886524 0.046234384 -0.27093297 0.044008423 0.21901946 1.475576 0.015411101 0.070947655
-0.03134931 -0.03394201 0.06888296 -0.14187294 0.13746507 1.2534779 0.014662694 1.1564919
0.021108484 -0.028199125 1.1794076 -0.28884938 0.54148006 0.32203087 0.08580234 -0.08770138
-0.001812622 -0.04568573 0.09245597 -0.008003849 0.2944877 0.023519624 0.112911515 1.4715663
0.047159765 -0.095702685 0.08294694 0.021902304 0.032234542 0.116932556 1.3344154 0.6990639
-1.1023449 1.3369288 -0.27076614 0.0150000565 -0.000500958 -0.2976581 -0.10784153 -0.018672457
0.07436644 2.095078 1.0887312 1.5942506 1.4631106 -1.1193906 0.07154551 -0.022367975
0.04129594 0.029732913 -0.020199142 0.06322902 1.1270943 0.0671627 -0.16523746 0.10996994
-0.010413525 0.11494563 1.5345244 1.3936073 0.0048438474 0.1267401 0.011195896 0.08490724
0.05459996 0.017273376 -0.015144776 -1.3279943 0.09719291 0.049011 0.3062597 0.05064139
0.47234163 0.23519133 -0.02666619 -0.021037648 -0.044276245 -0.018831782 1.1923901 0.17992929
-0.011083918 0.057760004 0.0016058913 0.06994746 0.013194442 0.015703058 -0.24155986 0.029531205
0.010683425 0.019289285 0.738549 0.044669542 1.5759882 -0.05853279 0.008482868 0.14723963
-0.20096871 0.33839607 0.08151614 0.034780502 -0.32555777 -0.018073272 0.06423971 -0.022289649
-0.12789492 1.3735586 -0.09075902 0.081440866 -0.30461565 0.30472925 -0.007714708 0.013451481
1.3105443 0.044122647 0.030249173 -0.014075752 0.02013539 -0.0008828014 -0.02203479 0.07826514
0.03565639 -0.020981781 -0.34290573 -0.026859878 -0.061957058 -0.8224587 0.017330684 0.030737832
-0.0061062127 0.049087957 0.03248804 0.04371003 -0.019259144 1.1000458 0.06446443 1.3103104
-0.003055163 0.071434334 0.6610132 -0.2842347 1.1032819 0.3701494 0.02983119 -0.4380167
0.072080225 0.32510644 0.024172409 0.07099768 -0.16907324 -0.0388366 -0.02271633 0.9539179
0.1668644 0.037437372 0.11476273 -0.063440315 0.06951205 -0.018934507 0.5747711 0.572714

fc3.bias f4 [2]
00000000: e7c0 2d40 87f2 3a40
2.7148988 2.9210527
