codes/DDPG/saved_model/20210726-005316/checkpoint.pt (torch_old, 5373 bytes, 5 tensors)

linear1.weight f4 [30, 3]
0.16007844 -0.5211678 0.4629895 -0.45332944 -0.64035034 -0.14250472 -0.22131182 -0.30284497
0.44087538 0.24804038 0.637387 0.45059535 -0.045161214 -0.25334585 -0.5352011 -0.608847
0.02231743 0.43677932 0.14612114 -0.4565401 0.60992056 -0.25116342 -0.11508507 0.26345465
-0.6529697 -0.013034462 -0.521856 -0.42542893 -0.41824326 0.33513218 0.4467183 0.56205845
0.19304337 0.46209154 0.12064221 0.59856975 0.11600191 -0.24994323 -0.47139722 -0.2447298
-0.55588853 -0.11185791 -0.10390487 -0.58471006 -0.23245104 0.09561064 0.5338426 -0.32861257
-0.11468937 -0.1866175 -0.38278088 -0.0585047 -0.32975057 0.37520805 -0.6563794 -0.61217046
-0.18873952 -0.23663877 0.40493214 0.21716744 -0.25153175 0.20184927 0.5436317 -0.61592895
-0.44350573 0.2692241 0.4441619 0.15900096 -0.2997206 -0.17167817 0.38759512 0.515606
-0.2136826 0.5971524 -0.19927002 0.0728185 -0.03181863 0.47381604 0.04281134 -0.49862957
0.08282591 -0.18545972 0.11148037 -0.1320687 0.22087432 0.48659542 0.012736886 0.40791407
-0.079085946 -0.0013967992
00000000: 9aeb 233e 416b 05bf f60c ed3e cc1a e8be
00000010: 00ee 23bf c2ec 11be 919f 62be 7f0e 9bbe
00000020: 6bba e13e 4cfe 7d3e cb2b 233f 6fb4 e63e
00000030: f7fa 38bd 8cb6 81be f002 09bf 66dd 1bbf
00000040: 0bd3 b63c 8aa1 df3e c8a0 153e a0bf e9be
00000050: c123 1c3f 7e98 80be b9b1 ebbd 87e3 863e
00000060: 0629 27bf 7f8e 55bc 5b98 05bf d2d1 d9be
00000070: fb23 d6be 7296 ab3e 43b8 e43e 10e3 0f3f
00000080: 29ad 453e 4397 ec3e 4313 f73d de3b 193f
00000090: 6992 ed3d 1ef1 7fbe fa5a f1be 739a 7abe
000000a0: b64e 0ebf c315 e5bd 14cc d4bd 8faf 15bf
000000b0: a507 6ebe 83cf c33d e9a9 083f e83f a8be
000000c0: 43e2 eabd a818 3fbe dbfb c3be a0a2 6fbd
000000d0: 11d5 a8be 451b c03e 7b08 28bf 34b7 1cbf
000000e0: ef44 41be 6f51 72be 4453 cf3e 2461 5e3e
000000f0: c5c8 80be 93b1 4e3e 722b 0b3f 85ad 1dbf
00000100: 2f13 e3be bed7 893e 3069 e33e 26d1 223e
00000110: fa74 99be 67cc 2fbe de72 c63e c1fe 033f
00000120: 9dcf 5abe fbde 183f 710d 4cbe de21 953d
00000130: 4054 02bd 0498 f23e f25a 2f3d 604c ffbe
00000140: a1a0 a93d 27e9 3dbe d24f e43d 043d 07be
00000150: e12c 623e 0923 f93e 5fae 503c 1dda d03e
00000160: d0f7 a1bd ce14 b7ba

linear1.bias f4 [30]
-0.2900619 -0.3301482 0.11880744 0.08758827 0.21047528 0.2747113 -0.2988519 -0.5218414
-0.18093035 -0.511569 -0.27696037 0.3240211 -0.24001785 0.25485417 0.28824466 0.5761558
0.0067105214 0.46024242 -0.27127215 -0.4581826 -0.24707301 0.26851696 -0.38850012 -0.23344639
0.052402496 0.461842 0.48797417 0.3258599 0.5669961 0.49517426
00000000: fe82 94be 2f09 a9be 5151 f33d 7b61 b33d
00000010: d586 573e f6a6 8c3e 1e03 99be 6697 05bf
00000020: ce45 39be 30f6 02bf c0cd 8dbe 18e6 a53e
00000030: 3dc7 75be 3f7c 823e ce94 933e f27e 133f
00000040: efe3 db3b e5a4 eb3e 2fe4 8abe e996 eabe
00000050: b500 7dbe 0e7b 893e 7de9 c6be 920c 6fbe
00000060: 00a4 563d 8e76 ec3e c0d7 f93e 1cd7 a63e
00000070: a826 113f 7b87 fd3e

linear2.weight f4 [30, 30]
-0.021889312 -0.092343435 0.12985207 0.12264379 0.071397826 0.22343703 -0.11683092 0.22433537
-0.11416016 -0.009244989 0.1925835 0.079289764 -0.13361838 -0.2236845 -0.13831764 0.11072159
0.046566047 0.07432904 -0.16939384 0.25685167 0.030600721 0.19819179 -0.053451885 0.20326222
-0.08110641 0.07571316 0.09238402 -0.05922328 0.072182454 0.13534129 -0.105048865 0.28170967
0.14012863 -0.15767108 -0.022842063 0.0037289292 0.043585565 0.08456489 -0.046545547 0.010258122
-0.22672269 0.08465756 0.18075362 0.27435577 -0.06351841 -0.12984842 0.10700137 0.021071503
0.008452322 -0.2251366 0.1675653 -0.030542761 0.07040535 -0.015763797 -0.16051272 -0.059055727
0.25507683 0.11783402 -0.15843685 0.24650706 -0.04877705 0.20314793 0.035766445 -0.0895653
0.21154381 0.016865052 0.19290403 0.09315153 0.13472845 -0.06144378 -0.14022847 0.19358341
0.0035784063 -0.032964233 -0.009600574 -0.043207157 0.20610014 0.07223634 0.106794834 -0.1367993
-0.12391035 0.118111365 -0.10032653 -0.1290372 0.12746216 0.043038383 0.008407807 -0.04685457
-0.19484226 0.042738654 0.15703395 0.1801137 0.0587918 0.02226544 0.07531502 0.011138816
0.019381214 0.0025825163 0.088006556 -0.0035298401 0.0066964175 0.01855513 0.19117841 0.2728937
0.05694786 -0.061614744 0.17494042 -0.04576354 0.27999917 -0.13666351 -0.119643696 0.1483537
-0.109289356 -0.074365586 -0.18329476 0.0794661 0.030165393 0.1007685 0.093861416 -0.075716116
-0.020938687 0.066292614 -0.109819174 0.07367497 0.16683634 -0.020676801 0.03849315 0.1667776
0.09311775 -0.07292995 0.18089198 0.2210862 -0.1597516 -0.033404216 0.014974236 0.041780997
0.01601707 0.10080793 -0.13434462 -0.022795817 0.12778601 0.16086155 0.20692654 0.22623137
0.16023195 0.15197329 -0.21423295 -0.11010786 0.27565607 0.07738925 -0.03684753 0.24729843
-0.07657988 -0.08663482 0.014550069 0.085588336 0.051632036 -0.1259215 0.09800002 0.16440731
-0.16969293 -0.030731544 0.05871108 0.11269296 0.18979543 -0.07901193 -0.043127686 0.23932192
0.073710755 0.04250367 -0.07164629 -0.019185705 -0.06468317 0.09960447 -0.18832408 -0.021804271
0.028275082 0.06254337 -0.102066025 0.22199737 -0.027959393 -0.0661852 0.107460685 0.09582639
-0.09233116 0.10369899 0.047455095 0.18953697 -0.096380636 0.18104602 -0.01763971 -0.05832328
-0.04944199 0.06653431 0.110121705 -0.07575844 0.113605 -0.03562721 0.05971778 0.042782128
0.021004274 0.085586436 0.14355226 -0.11666797 0.06348712 0.06442956 0.07948617 -0.15270509
-0.12767099 -0.19809537 0.09689129 0.027978195 0.08994824 0.03674038 0.0058581587 -0.014317718
0.083636135 -0.11164766 -0.024391787 0.0039013326 0.27591884 0.2328399 0.1500541 -0.20584339
-0.010078704 0.27228972 0.11611273 -0.121761605 -0.04027502 0.21557245 0.19101456 -0.041118197
0.13548714 0.19116619 0.054095883 0.052211005 0.13461673 -0.035965737 0.14290293 -0.052456956
-0.022255816 0.009922937 0.1581514 0.071997136 0.210694 0.15441665 -0.032854218 -0.085415
0.07519215 0.06976487 -0.040313363 -0.13056545 -0.12525693 0.24565981 -0.066942714 0.073294334
00000000: 3751 b3bc 8e1e bdbd f1f7 043e ab2c fb3d
00000010: 0639 923d adcc 643e 0d45 efbd 2cb8 653e
00000020: cdcc e9bd 4b78 17bc 9c34 453e ac62 a23d
00000030: 42d3 08be 8d0d 65be 24a3 0dbe 00c2 e23d
00000040: 0abc 3e3d d339 983d 9475 2dbe 1082 833e
00000050: 5dae fa3c caf2 4a3e 5df0 5abd f923 503e
00000060: 1e1b a6bd 800f 9b3d d533 bd3d 1c94 72bd
00000070: 65d4 933d e896 0a3e dc23 d7bd 403c 903e
00000080: e17d 0f3e 8774 21be 471f bbbc 0d61 743b
00000090: c786 323d 5b30 ad3d 8ba6 3ebd af11 283c
000000a0: fe29 68be f160 ad3d 7a17 393e 5c78 8c3e
000000b0: f115 82bd fcf6 04be 8923 db3d 259e ac3c
000000c0: 9c7b 0a3c 358a 66be 3d96 2b3e d034 fabc
000000d0: ae30 903d 1423 81bc 725d 24be 6be4 71bd
000000e0: 6e99 823e f652 f13d 453d 22be 596c 7c3e
000000f0: 72ca 47bd 0306 503e d67f 123d 036e b7bd
00000100: f19e 583e 9428 8a3c a288 453e 3bc6 be3d
00000110: 41f6 093e 79ac 7bbd 0d98 0fbe bb3a 463e
00000120: b283 6a3b 8105 07bd ba4b 1dbc fdf9 30bd
00000130: ea0b 533e a5f0 933d 40b7 da3d 1e15 0cbe
00000140: b6c4 fdbd 5fe4 f13d ff77 cdbd 5422 04be
00000150: 7185 023e 0449 303d e6c0 093c 94ea 3fbd
00000160: bb84 47be ba0e 2f3d 82cd 203e ba6f 383e
00000170: accf 703d 0366 b63c c33e 9a3d 957f 363c
00000180: 5ac5 9e3c 6f3f 293b c83c b43d e454 67bb
00000190: 9f6d db3b ee00 983c 46c4 433e b9b8 8b3e
000001a0: 2942 693d be5f 7cbd 9523 333e 8d72 3bbd
000001b0: 0d5c 8f3e 85f1 0bbe c107 f5bd 08ea 173e
000001c0: 19d3 dfbd fc4c 98bd 9fb1 3bbe 1fbf a23d
000001d0: 6a1d f73c b75f ce3d 6a3a c03d 0d11 9bbd
000001e0: 9c87 abbc 6cc4 873d e0e8 e0bd e7e2 963d
000001f0: 25d7 2a3e 6562 a9bc feaa 1d3d bfc7 2a3e
00000200: 85b4 be3d 4c5c 95bd bf3b 393e 6c64 623e
00000210: ec95 23be dcd2 08bd 7f56 753c 8d22 2b3d
00000220: 3b36 833c 6374 ce3d a391 09be 4bbe babc
00000230: 56da 023e e4b8 243e 8de4 533e 32a9 673e
00000240: d813 243e e39e 1b3e e25f 5bbe 3b80 e1bd
00000250: cb22 8d3e 417e 9e3d 70ed 16bd cd3b 7d3e
00000260: ead5 9cbd 996d b1bd 6a63 6e3c f048 af3d
00000270: 1d7c 533d 91f1 00be 3cb4 c83d 645a 283e
00000280: fcc3 2dbe b8c0 fbbc 087b 703d 91cb e63d
00000290: bc59 423e 02d1 a1bd a8a6 30bd ce10 753e
000002a0: aaf5 963d 5418 2e3d 4abb 92bd 572b 9dbc
000002b0: 9c78 84bd 6efd cb3d 07d8 40be df9e b2bc
000002c0: 25a1 e73c bd16 803d fe07 d1bd 4753 633e
000002d0: 190b e5bc 1b8c 87bd 5914 dc3d a040 c43d
000002e0: 1f18 bdbd 2360 d43d 4660 423d fb15 423e
000002f0: 3663 c5bd 2164 393e 2781 90bc 64e4 6ebd
00000300: af83 4abd 2443 883d 7d87 e13d 3e27 9bbd
00000310: bda9 e83d d6ed 11bd a29a 743d 503c 2f3d
00000320: 2811 ac3c f147 af3d 5dff 123e 9eef eebd
00000330: 8905 823d a5f3 833d a5c9 a23d b95e 1cbe
00000340: 2fbc 02be 83d9 4abe f16e c63d 8732 e53c
00000350: c836 b83d 157d 163d ccf5 bf3b dd94 6abc
00000360: 6c49 ab3d 87a7 e4bd 49d1 c7bc 80ad 7f3b
00000370: 3c45 8d3e 956d 6e3e c8a7 193e 9cc8 52be
00000380: 2621 25bc 8f69 8b3e 83cc ed3d 265e f9bd
00000390: 6bf7 24bd 06bf 5c3e 5299 433e 8e6b 28bd
000003a0: 24bd 0a3e 12c1 433e a593 5d3d 35db 553d
000003b0: f8d8 093e cf50 13bd 2555 123e 1bdd 56bd
000003c0: d451 b6bc d093 223c 71f2 213e 3c73 933d
000003d0: 2bc0 573e 661f 1e3e 2592 06bd 0fee aebd
000003e0: 58fe 993d e2e0 8e3d a01f 25bd f3b2 05be
000003f0: 5a43 00be 3f8e 7b3e 4319 89bd 571b 963d

linear2.bias f4 [30]
-0.11511416 0.123158306 0.009133692 -0.091183186 -0.03112959 0.024658926 -0.10880682 -0.09117924
-0.07597764 0.023248404 -0.106136195 0.17917001 0.09756172 0.06001336 -0.048840184 0.04024951
0.15810303 0.14920618 -0.13395283 0.16720098 -0.06666651 0.08972363 0.13143243 -0.08526444
-0.08604485 0.090610854 -0.04468773 0.040518098 0.07651447 0.073338516
00000000: f9c0 ebbd 6c3a fc3d 7ba5 153c 40be babd
00000010: 7b03 ffbc 8401 ca3c 1cd6 debd 2ebc babd
00000020: 2a9a 9bbd 7073 be3c ef5d d9bd 5878 373e
00000030: 70ce c73d 92d0 753d a50c 48bd acdc 243d
00000040: c3e5 213e 81c9 183e ee2a 09be bc36 2b3e
00000050: 7488 88bd 06c1 b73d 3996 063e 1f9f aebd
00000060: 4838 b0bd 2f92 b93d 7b0a 37bd 4ef6 253d
00000070: 9eb3 9c3d 8132 963d

linear3.weight f4 [1, 30]
-0.05235859 0.079975404 0.07001377 0.07320493 -0.05443868 0.10796855 -0.00923242 -0.06394787
0.04670824 0.0019857204 -0.03433617 -0.0008938257 -0.041138403 0.070388295 -0.06166462 0.04438671
-0.009158485 0.105320014 0.08240283 -0.058158357 0.029951505 0.04296921 0.047471605 -0.04723082
0.08976633 0.06998903 0.08334119 -0.04967217 0.004218256 -0.054043144
00000000: f675 56bd 25ca a33d 6163 8f3d 77ec 953d
00000010: 18fb 5ebd 9d1e dd3d 9343 17bc 1af7 82bd
00000020: 2451 3f3d dc22 023b 15a4 0cbd a14f 6aba
00000030: be80 28bd bd27 903d 0a94 7cbd d7ce 353d
00000040: 780d 16bc 05b2 d73d d1c2 a83d 7537 6ebd
00000050: dc5c f53c 7b00 303d 9671 423d 1b75 41bd
00000060: 69d7 b73d 6956 8f3d c9ae aa3d 0c75 4bbd
00000070: 4c39 8a3b 585c 5dbd
